DDPG_Torcs_PyTorch/actormodel.pth (torch_old, 767165 bytes, 7 tensors)

fc1.weight f4 [300, 29]
1.3015286 0.22302353 0.7209025 0.25249153 0.090785824 0.029762149 -0.014194333 -0.017625757
0.008913165 -0.0011303119 -0.01738136 -0.021067582 -0.02469071 -0.032467738 -0.060289007 -0.09376182
-0.025533209 0.110179104 -0.27910805 -0.12720537 0.017796993 -0.06295709 0.28417137 2.3059635
-0.02167574 -0.041379932 -0.059735373 -0.063845634 0.050432328 0.70621586 -0.015847288 -0.05962795
-0.013358899 0.08083571 0.021838946 0.027847312 0.015976956 0.010853174 0.010421829 0.0024420698
0.01613309 0.02020352 -0.007083495 -0.05454938 -0.08536673 -0.09009071 -0.20413318 -0.102569655
-0.029075295 0.18467845 -0.014749079 1.0576035 -0.6661182 -0.0762553 0.046660688 -0.02378355
0.004545337 0.050649576 -0.16846019 0.1243019 0.29936704 -0.19639216 -0.11618847 0.005438846
-0.024427861 -0.024292411 0.008339406 0.020614255 0.029634753 0.014753633 -0.0026540703 -0.019866299
-0.03685702 -0.08660843 -0.18026657 -0.32941407 -0.2941876 -0.009158607 0.09693121 0.055156924
-0.023037113 -0.29335257 -0.0147756385 0.18337646 0.034131125 0.079950064 0.07792156 0.4158672
0.057892293 0.014254776 0.035252534 0.13058907 -0.06105423 -0.02608328 -0.046483353 -0.028740272
-0.015440837 -0.0011467941 0.051141225 0.052711252 0.029260833 0.014673443 -0.0003472706 -0.24491073
-0.36581236 0.045867164 0.014526989 0.07362348 -0.01109612 1.5264907 -0.6082175 -0.05719147
0.11891884 -0.024121623 0.023744762 0.10959839 -0.1598211 0.14954492 0.37162656 0.124355055
-0.009910478 -0.045333102 -0.06001156 -0.08579705 -0.12127294 -0.1302299 -0.1336976 -0.14561112
-0.14523272 -0.15055183 -0.1500229 -0.16484307 -0.2231788 -0.33683753 -0.3276682 -0.018620608
0.088093735 0.013267682 0.15566249 -0.78730893 -0.02887582 0.16376142 -0.002946348 0.0403664
0.117164925 0.39006633 0.31051078 0.2740458 -0.21461897 -0.35290906 -0.24770406 -0.153052
-0.09699485 -0.07446553 -0.06557301 -0.071899444 -0.08149658 -0.076964185 -0.07686278 -0.08478111
-0.13912077 -0.08107482 -0.08617299 -0.045070264 0.10359699 0.037565168 0.05189092 -0.49074167
-1.5086777 -0.08051296 0.06195471 0.02659187 0.035116833 0.15545136 0.5296496 0.18359655
0.3050915 0.00072970963 0.06351043 0.030018004 0.0033132518 -0.02140809 -0.048144635 -0.07136364
-0.082571484 -0.045270793 -0.024523206 0.0029722948 0.0544974 0.16445415 0.41680115 0.18838328
-0.061445814 -0.0052310107 -0.018605776 -0.07383027 1.0229822 0.17571707 -0.0664224 0.042370185
-0.07487141 -0.044066112 0.07766349 0.40179244 0.1272483 -0.10193344 0.1917375 0.2020431
0.037151996 0.0005024257 -0.049140573 -0.092671715 -0.1072761 -0.077669844 -0.03359264 -0.018776484
-0.02543441 -0.045017872 0.006984919 0.10920107 -0.020356568 0.086204045 -0.056503728 -0.05436428
-0.024174869 0.7725336 -0.6023707 -0.00058282464 0.11948171 -0.021104315 0.014729867 0.048190296
-0.6173604 -0.13607574 -0.26564083 -0.35195583 -0.18782397 -0.13705228 -0.12948918 -0.10659551
-0.10822792 -0.064472765 -0.0077466415 0.0043044197 0.010554907 0.030585399 0.05066282 0.061119795
0.2431566 0.3123945 0.3946273 0.30710465 0.28709692 0.18052387 -0.009442042 0.7375492
00000000: 7d98 a63f 4860 643e 118d 383f 9246 813e
00000010: ebed b93d c0cf f33c 598f 68bc e463 90bc
00000020: 8608 123c f926 94ba 5b63 8ebc ec95 acbc
00000030: 2c44 cabc e4fc 04bd 9bf1 76bd 3206 c0bd
00000040: 052b d1bc 95a5 e13d 40e7 8ebe 2042 02be
00000050: 00cb 913c a6ef 80bd e97e 913e e894 1340
00000060: 5291 b1bc 017e 29bd 14ad 74bd 80c1 82bd
00000070: 2192 4e3d 90ca 343f 2cd2 81bc 703c 74bd
00000080: 49df 5abc 318d a53d 97e7 b23c 0c20 e43c
00000090: 1be2 823c 83d1 313c 52c0 2a3c 220b 203b
000000a0: 8b29 843c da81 a53c aa1c e8bb 2c6f 5fbd
000000b0: c1d4 aebd 7a81 b8bd 4a08 51be 0a10 d2bd
000000c0: 502f eebc 591c 3d3e 1fa6 71bc 8d5f 873f
000000d0: b986 2abf bd2b 9cbd 471f 3f3d b8d5 c2bc
000000e0: 0df1 943b ee75 4f3d d480 2cbe ff91 fe3d
000000f0: a346 993e 071b 49be 38f4 edbd 5938 b23b
00000100: f01c c8bc e100 c7bc 01a2 083c 3adf a83c
00000110: 95c4 f23c 39b9 713c e9ef 2dbb a6be a2bc
00000120: 63f7 16bd c35f b1bd cd97 38be f6a8 a8be
00000130: c29f 96be fb0d 16bc df83 c63d 3aec 613d
00000140: 54b8 bcbc 4f32 96be 8515 72bc 0ac7 3b3e
00000150: 14cd 0b3d dcbc a33d 5795 9f3d 8cec d43e
00000160: 7820 6d3d dd8c 693c f664 103d 24b9 053e
00000170: 0014 7abd 9aac d5bc 5465 3ebd b870 ebbc
00000180: 90fb 7cbc 0650 96ba 7679 513d c1e7 573d
00000190: 6ab4 ef3c e168 703c df11 b6b9 e1c9 7abe
000001a0: c24b bbbe 35df 3b3d 9c02 6e3c e8c7 963d
000001b0: 80cc 35bc 0c64 c33f 24b4 1bbf 9a41 6abd
000001c0: b98b f33d b69a c5bc 6084 c23c 1f75 e03d
000001d0: 24a8 23be 4e22 193e d645 be3e ddad fe3d
000001e0: 8f5f 22bc 34af 39bd aece 75bd 5db6 afbd
000001f0: f25d f8bd fd5a 05be 06e8 08be 151b 15be
00000200: e3b7 14be 422a 1abe 9a9f 19be 9fcc 28be
00000210: fc88 64be f875 acbe 20c4 a7be 3f8a 98bc
00000220: 7d6a b43d b160 593c fd65 1f3e 148d 49bf
00000230: fc8c ecbc 13b1 273e 8417 41bb 3d57 253d
00000240: 2af4 ef3d c6b6 c73e 45fb 9e3e bb4f 8c3e
00000250: 13c5 5bbe 7fb0 b4be 22a6 7dbe aab9 1cbe
00000260: 3ca5 c6bd 6281 98bd 244b 86bd 0440 93bd
00000270: aee7 a6bd 669f 9dbd 3c6a 9dbd b8a1 adbd
00000280: ad75 0ebe 8e0a a6bd 777b b0bd 999b 38bd
00000290: a92a d43d efdd 193d 938b 543d 7e42 fbbe
000002a0: 5a1c c1bf fbe3 a4bd 39c4 7d3d 31d7 d93c
000002b0: abd6 0f3d a42e 1f3e 1e97 073f bc00 3c3e
000002c0: f434 9c3e fc49 3f3a c211 823d 51e8 f53c
000002d0: 2423 593b 0560 afbc 4f33 45bd 1a27 92bd
000002e0: 3d1b a9bd de6d 39bd e4e4 c8bc d5ca 423b
000002f0: aa38 5f3d ab66 283e f666 d53e 8ce7 403e
00000300: 9bae 7bbd e668 abbb 246b 98bc 5334 97bd
00000310: 15f1 823f 2def 333e 7808 88bd 5c8c 2d3d
00000320: 2f56 99bd ab7e 34bd 090e 9f3d bdb7 cd3e
00000330: 614d 023e 7bc2 d0bd d656 443e 63e4 4e3e
00000340: b12c 183d 38b5 033a a047 49bd abca bdbd
00000350: 92b3 dbbd 5e11 9fbd 7098 09bd 24d1 99bc
00000360: d35b d0bc a964 38bd bfe1 e43b d0a4 df3d
00000370: d1c2 a6bc bf8b b03d 7470 67bd 14ad 5ebd
00000380: 600a c6bc c3c4 453f f734 1abf b3c8 18ba
00000390: d4b2 f43d f5e2 acbc 8a55 713c 3063 453d
000003a0: 550b 1ebf 7057 0bbe 1302 88be 8e33 b4be
000003b0: ed54 40be 6f57 0cbe d098 04be bf4e dabd
000003c0: 9aa6 ddbd 4c0a 84bd 8ad7 fdbb 170c 8d3b
000003d0: 7dee 2c3c 3b8e fa3c d183 4f3d c058 7a3d
000003e0: 0bfe 783e 2cf2 9f3e 970c ca3e d23c 9d3e
000003f0: 5efe 923e 40db 383e cbb2 1abc 06d0 3c3f

fc1.bias f4 [300]
0.04080935 0.01772667 0.0817816 0.03956846 0.14866333 0.24705471 0.12669027 0.041449968
0.033154245 0.0923166 0.1960221 -0.0002864852 -0.00034118068 0.17882262 -0.11408873 0.08782467
0.019952202 -0.00034363018 -0.093042254 -0.0022374482 -0.0022305606 0.025923504 0.03197363 -0.07222323
0.131784 0.28523752 -0.026873607 0.012164797 -0.004291368 -0.0006015679 -0.0004931057 0.25869736
-0.0004679217 0.023640048 -0.010884906 0.093226984 -0.0057260203 -0.012458891 -0.025821852 -0.001981717
-0.0025456147 0.071877725 0.011875037 -0.0023328825 -0.00055786746 -0.00013135596 -0.020017173 -0.0007290579
-0.001183199 -0.00019475858 0.13089392 -0.0005993728 0.11405299 -0.00042510583 0.18640758 0.036067054
0.30355823 -0.0005479208 0.033306357 -0.009249775 0.07549455 0.131411 0.073786736 0.08894924
0.14280744 0.12777573 -0.0004330697 -0.0007569334 0.012267616 -9.397336e-05 -0.0022825252 -0.00059827504
-0.0011630545 -3.0439962e-05 0.06338774 0.022559527 -0.07870054 -0.0036918924 0.17121758 -0.0005512602
0.0874422 0.16589832 -0.02742824 -0.095377505 0.101476945 0.067976534 -0.034275763 0.12051437
0.12930867 0.05491416 0.09775684 -0.00027301128 -0.029707082 -0.009297827 -0.018523004 0.04097279
-0.0030906685 -0.00031420475 -0.0015032392 -0.002205235 0.013764813 -0.002229925 -0.02119378 0.033439036
-0.0005394246 0.025121976 0.0428366 -9.542231e-05 -0.0028040588 -0.00055539433 -0.065462686 0.14215288
0.022858858 -0.00066819973 0.042891182 -0.020796904 -0.003055713 -0.00021405451 -3.103704e-05 0.19021817
0.11919963 -0.00022582759 -0.0015958161 0.05324181 -0.10689462 -0.0013143052 -0.0011520594 -5.8627214e-05
-0.0024981438 0.05683183 -0.058874685 0.02844011 -0.00024859933 0.01806964 0.033017755 -0.051820733
-0.0011763598 -0.047816508 -0.020855473 -0.17051375 0.121959604 0.07391457 0.010674052 0.038230322
-0.111185275 0.00062436087 0.027488625 -0.00018405078 0.0014570132 0.09072586 0.017091766 0.039842512
-0.00054486707 -0.118182175 -0.00041632686 -0.0002703195 -0.05176319 0.03073781 -0.0032790073 -0.0029585252
-0.0025182893 -0.0011638001 0.049690425 -0.120198525 -0.14988466 -0.00044005856 0.22883686 0.045325276
-0.002227198 0.05627183 0.16099012 -0.001327657 -0.0005177061 0.073264815 -0.0011227187 -0.0006441486
0.25554654 -0.0020033983 -0.003052662 -0.00075924856 -0.00057567284 -9.747763e-05 0.11654257 -0.089450315
-0.094075665 0.036461126 -0.00023891586 -0.0319383 0.027731113 -0.0031286674 -0.0007071337 0.0
-0.00042348035 0.0 -0.003050123 0.007530533 -0.10808785 0.19382662 0.043293357 0.18022363
-0.0018121295 -0.00022924025 -0.015719784 -0.0007493687 0.20282322 0.029641869 0.10316166 -0.00038881056
0.13899247 0.11120629 0.041327138 -0.000472507 -0.00024652007 0.085393004 0.06609902 -0.064882986
0.022975447 0.071331136 -0.10954225 0.013578387 -0.0011528546 0.09779108 -0.0011350682 0.094263144
-0.034639604 0.09672681 0.015146122 0.07292419 -0.0004585417 0.047770716 -0.00012061243 0.0018424292
0.08085456 -0.088495664 -0.0027110225 0.0 -0.0011507766 -0.00011731855 0.08011953 0.06762434
-0.001136495 0.10499854 -2.1422924e-05 -0.0005645827 -0.0018362585 -0.0011379112 -0.00017507363 -0.0011453084
0.10224337 -0.00058186485 -0.00058055954 0.0 0.08140892 -0.0073558413 -0.06402564 0.06859095
00000000: b427 273d 8537 913c 1d7d a73d 8a12 223d
00000010: 333b 183e e9fb 7c3e 18bb 013e 71c7 293d
00000020: bfcc 073d 7c10 bd3d 04ba 483e 6533 96b9
00000030: 7fe0 b2b9 471d 373e 5aa7 e9bd 6cdd b33d
00000040: cd72 a33c 4329 b4b9 f08c bebd 27a2 12bb
00000050: 992e 12bb 875d d43c c8f6 023d c6e9 93bd
00000060: 63f2 063e a70a 923e 0a26 dcbc db4e 473c
00000070: 9b9e 8cbb 8ab2 1dba c343 01ba fb73 843e
00000080: 6353 f5b9 c6a8 c13c 9b56 32bc caed be3d
00000090: 57a1 bbbb 6020 4cbc 5988 d3bc b2df 01bb
000000a0: 54d4 26bb a134 933d 848f 423c 46e3 18bb
000000b0: da3d 12ba 99bc 09b9 0efb a3bc 3f1e 3fba
000000c0: 9215 9bba 1c38 4cb9 0e09 063e 3a1f 1dba
000000d0: 9d94 e93d bde0 deb9 a1e1 3e3e 0cbb 133d
000000e0: fc6b 9b3e 58a2 0fba 3f6c 083d 5e8c 17bc
000000f0: e39c 9a3d 9b90 063e 801d 973d 052b b63d
00000100: 1d3c 123e a4d7 023e a20d e3b9 f16c 46ba
00000110: 1cfe 483c 9013 c5b8 6b96 15bb 8fd5 1cba
00000120: a271 98ba 5259 ffb7 6ed1 813d c2ce b83c
00000130: c02d a1bd adf3 71bb a953 2f3e 7282 10ba
00000140: e514 b33d 40e1 293e 30b1 e0bc 4855 c3bd
00000150: 25d3 cf3d 4837 8b3d be64 0cbd 3dd0 f63d
00000160: 7e69 043e aced 603d bd34 c83d f422 8fb9
00000170: 445c f3bc ea55 18bc 8ebd 97bc 16d3 273d
00000180: d08c 4abb d9bb a4b9 5608 c5ba b485 10bb
00000190: cf85 613c ef23 12bb 949e adbc 5ff7 083d
000001a0: 2c68 0dba 9acc cd3c 6e75 2f3d 761d c8b8
000001b0: 4dc4 37bb e297 11ba 4d11 86bd 8690 113e
000001c0: 8042 bb3c 202a 2fba aaae 2f3d 455e aabc
000001d0: 5b42 48bb d273 60b9 c52d 02b8 8dc8 423e
000001e0: f01e f43d 22cc 6cb9 b42a d1ba 1614 5a3d
000001f0: 91eb dabd c444 acba b300 97ba 7ee6 75b8
00000200: e6b7 23bb 7ec8 683d 9526 71bd 3cfb e83c
00000210: 7056 82b9 c806 943c a03d 073d fa41 54bd
00000220: 1630 9aba 3edb 43bd 19d9 aabc 289b 2ebe
00000230: f5c5 f93d 8660 973d 38e2 2e3c 6697 1c3d
00000240: 1bb5 e3bd 26ac 233a d32f e13c c1fd 40b9
00000250: 40f9 be3a 7bce b93d 0804 8c3c e731 233d
00000260: 69d5 0eba 7f09 f2bd 7246 dab9 abb9 8db9
00000270: a405 54bd dccd fb3c 9de4 56bb d1e3 41bb
00000280: e209 25bb a78a 98ba 3088 4b3d a52a f6bd
00000290: 5d7b 19be a9b7 e6b9 3654 6a3e ffa6 393d
000002a0: 2ff6 11bb 4a7d 663d 98da 243e c704 aeba
000002b0: abb6 07ba dd0b 963d 3028 93ba 15dc 28ba
000002c0: ffd6 823e 724b 03bb 2b0f 48bb 4f08 47ba
000002d0: c0e8 16ba e76c ccb8 dfad ee3d ba31 b7bd
000002e0: beaa c0bd 4358 153d 7d85 7ab9 bcd1 02bd
000002f0: 5c2c e33c 540a 4dbb f05e 39ba 0000 0000
00000300: 9206 deb9 0000 0000 93e4 47bb b0c2 f63b
00000310: 2a5d ddbd 7c7a 463e 6054 313d 8b8c 383e
00000320: fa84 edba 3660 70b9 c7c6 80bc 4871 44ba
00000330: e4b0 4f3e 81d3 f23c 6c46 d33d 45d9 cbb9
00000340: 0b54 0e3e 20c0 e33d a546 293d d1ba f7b9
00000350: 5d3f 81b9 87e2 ae3d ec5e 873d 5fe1 84bd
00000360: 0137 bc3c 0f16 923d b057 e0bd e277 5e3c
00000370: 621b 97ba b146 c83d 92c6 94ba 090d c13d
00000380: 42e2 0dbd b518 c63d 7127 783c 4759 953d
00000390: 6d68 f0b9 3aab 433d 4ef1 fcb8 aa7d f13a
000003a0: 1397 a53d 373d b5bd 69ab 31bb 0000 0000
000003b0: a8d5 96ba eb08 f6b8 b515 a43d a17e 8a3d
000003c0: 72f6 94ba 7909 d73d 61b5 b3b7 8100 14ba
000003d0: 9cae f0ba f725 95ba f893 37b9 2c1e 96ba
000003e0: f964 d13d 4a88 18ba b130 18ba 0000 0000
000003f0: b8b9 a63d 4509 f1bb e01f 83bd 6979 8c3d

fc2.weight f4 [600, 300]
-6.164427e-05 -0.0008004848 -0.00019572368 -0.0009023696 -0.00023719919 3.7778445e-05 -3.6548805e-05 -0.0008902604
8.581276e-05 -4.3195454e-05 -5.8935013e-05 -5.5552364e-06 3.48646e-05 7.242909e-05 -0.00031982438 -7.8825105e-05
-0.00080145797 -4.7804722e-05 -0.0006092916 1.0144899e-05 8.633027e-05 -0.00073349127 -0.00092726614 4.6629637e-05
0.00027609162 0.00010958387 -0.0007606894 -0.0007644603 0.0001344266 7.93514e-05 -4.3041196e-05 -5.9461527e-05
5.5009215e-05 -0.00016982107 3.0579242e-05 -0.0011356833 -0.0006128486 -0.0006352073 -0.0002727147 -0.00014320316
-0.00027774347 2.151687e-05 0.00012075061 3.812679e-05 -2.9404488e-05 4.70488e-05 -0.0007554792 0.00013458688
-8.968863e-05 -6.6710025e-05 -4.7545593e-05 1.2067581e-07 -3.288281e-06 3.94532e-05 6.507521e-06 -0.0012412338
9.755379e-05 -1.2576573e-05 6.3277555e-05 -0.00074951915 8.265888e-05 1.5216109e-05 -7.3158226e-05 -9.382244e-05
-3.318579e-05 -0.0005682249 0.00018504825 -0.00020593034 -6.251886e-05 0.00014294461 -0.00070752855 -6.87427e-05
-0.00011332226 -0.0001377612 -0.00021537989 -0.00053126074 -0.0002595292 5.0703748e-06 -1.38308815e-05 0.0001489493
-0.000640003 -9.089009e-05 -0.0008734164 -0.00022361564 -0.00052792113 -0.000702993 -0.0006055118 -0.0005385058
-4.985901e-05 -0.0006303229 -0.0010315392 0.00012306271 -0.00057002757 -0.0009377168 -0.00026962213 -5.8412024e-05
-4.7754544e-05 -1.0413928e-05 2.7412696e-05 -0.00086867664 -0.00082232454 -0.00012509113 -0.0006071843 -0.00058918935
4.1072486e-05 -0.00014737422 -8.329276e-05 0.00022181279 0.00012244003 -1.0958471e-05 -4.217766e-05 -6.625715e-05
-0.0010090481 6.7632296e-05 -0.00021558459 9.650054e-05 3.298929e-05 -2.0921832e-05 -3.839623e-05 -4.758e-05
1.7951079e-05 -6.5501496e-05 -9.968763e-05 -0.00061037537 -0.00069759623 5.4587426e-06 0.00013941337 -2.9395751e-05
-0.00019396844 -0.0010531832 0.0001529071 -0.0003609136 6.0604598e-05 -0.0010633268 -0.00068549026 -0.00064279424
4.124485e-05 -7.394537e-05 -8.808896e-05 -0.000628156 -0.00051312067 -0.00093118206 -0.00077092706 0.000118453754
-0.0009067292 -0.00028768615 -0.00011988127 -0.00026416333 -0.0007804146 -0.0007769443 -0.0006778963 1.40519705e-05
5.8994996e-05 -0.0007264489 0.00021615053 -2.2860042e-05 -0.00021849641 -0.0007846572 1.7865856e-05 4.655297e-05
-2.279224e-05 -3.9892853e-05 -0.0011653843 -0.00020375889 -7.3266056e-05 0.00010711788 -4.461578e-05 -0.0009445485
-0.00045732065 -1.5016313e-05 -0.00023458613 -8.501486e-05 -0.0001945261 -5.536229e-05 -6.0066586e-06 9.952288e-05
0.00016263942 4.1049665e-05 -5.0097526e-05 3.6476467e-05 -1.4614881e-05 2.5566907e-05 -8.428342e-05 1.577261e-05
-0.0007693645 -0.0004210119 0.00011059886 0.00014580128 -0.00060795195 -6.5667125e-05 0.00010193906 2.8419643e-05
-4.7600235e-05 -8.094114e-05 1.192642e-05 -0.0012251309 -0.0004240082 7.919198e-05 -0.0011898223 -0.00043736325
5.4421995e-05 -4.0095652e-05 0.00017410633 6.363338e-05 -0.0008934056 -0.00019926485 0.00015407188 -1.263292e-05
-0.00016856764 -5.3411408e-05 -0.0008888971 -0.000113085654 -0.00021311227 -0.0009649461 -0.0010399912 0.00010439048
4.0880557e-05 -0.00012774381 -3.574902e-05 -0.0008263576 -0.00021243223 -0.0009472153 -4.0349983e-05 -0.00016829529
-8.652554e-05 -0.000770564 -0.0005980416 -0.0008986484 3.518656e-05 -0.0008255862 8.4912586e-05 0.0001481209
-0.001087953 -0.00017914748 -2.1810592e-05 -4.928488e-05 -0.00012859196 -6.4081345e-05 -0.00010710246 -0.00060383545
0.00013702265 -3.1448104e-05 -5.2605985e-05 0.00011440247 -0.0002230848 -6.366318e-05 6.23042e-05 -4.9236725e-05
-8.719862e-05 8.098223e-05 0.00012767717 -3.7566253e-05 -0.0005750448 -0.00064938935 -0.00010743363 -0.0011243172
00000000: 0447 81b8 a0d7 51ba 2d3b 4db9 008d 6cba
00000010: acb8 78b9 4c74 1e38 fb4b 19b8 5d60 69ba
00000020: 60f6 b338 c42c 35b8 fd30 77b8 1e67 bab6
00000030: 943b 1238 12e5 9738 1aae a7b9 e84e a5b8
00000040: ef18 52ba ee81 48b8 deb8 1fba 0234 2a37
00000050: 360c b538 c447 40ba c713 73ba 3194 4338
00000060: 64c0 9039 64d0 e538 0069 47ba 1066 48ba
00000070: def4 0c39 7569 a638 2287 34b8 5466 79b8
00000080: b2b9 6638 ff11 32b9 3642 0038 35db 94ba
00000090: 93a7 20ba 0a84 26ba 26fb 8eb9 ce28 16b9
000000a0: 199e 91b9 207f b437 7d3b fd38 54ea 1f38
000000b0: a8a9 f6b7 4456 4538 5a0b 46ba e41f 0d39
000000c0: 3717 bcb8 ace6 8bb8 b16b 47b8 1d93 0134
000000d0: 3dac 5cb6 8d7a 2538 2e5b da36 e5b0 a2ba
000000e0: cb95 cc38 f8ff 52b7 e1b3 8438 617b 44ba
000000f0: 2659 ad38 b148 7f37 866c 99b8 8ac2 c4b8
00000100: f830 0bb8 edf4 14ba 8309 4239 01ef 57b9
00000110: 8f1c 83b8 67e3 1539 7079 39ba f529 90b8
00000120: 6da7 edb8 fe73 10b9 99d7 61b9 4e44 0bba
00000130: 6b11 88b9 3022 aa36 2f0b 68b7 462f 1c39
00000140: e0c5 27ba 3f9c beb8 fbf5 64ba 5e7a 6ab9
00000150: 3064 0aba 1049 38ba 36bb 1eba 832a 0dba
00000160: b41f 51b8 413c 25ba b634 87ba 650a 0139
00000170: e76d 15ba 1cd1 75ba 125c 8db9 6fff 74b8
00000180: 0d4c 48b8 7bb7 2eb7 51f4 e537 e7b7 63ba
00000190: 4491 57ba e52a 03b9 732b 1fba d473 1aba
000001a0: 3f45 2c38 7788 1ab9 76ad aeb8 6b96 6839
000001b0: 3f63 0039 46da 37b7 ebe7 30b8 89f3 8ab8
000001c0: 0942 84ba d0d5 8d38 8c0e 62b9 5560 ca38
000001d0: fb5d 0a38 4b81 afb7 a30b 21b8 a390 47b8
000001e0: a695 9637 d95d 89b8 640f d1b8 9901 20ba
000001f0: e4de 36ba 3e2a b736 7e2f 1239 e596 f6b7
00000200: 0264 4bb9 f70a 8aba b055 2039 0139 bdb9
00000210: b131 7e38 545f 8bba 79b2 33ba 3181 28ba
00000220: 52fe 2c38 1e13 9bb8 66bc b8b8 d6aa 24ba
00000230: f282 06ba 921a 74ba 0a18 4aba 606a f838
00000240: 91b1 6dba 95d4 96b9 c468 fbb8 677f 8ab9
00000250: bd94 4cba d9ab 4bba dab4 31ba c1c0 6b37
00000260: 6571 7738 296f 3eba 77a6 6239 91c3 bfb7
00000270: 2f1c 65b9 74b1 4dba a2de 9537 df41 4338
00000280: f631 bfb7 a052 27b8 cfbf 98ba 1ca8 55b9
00000290: 6aa6 99b8 79a4 e038 d421 3bb8 949b 77ba
000002a0: 8ac4 efb9 93ee 7bb7 3cfb 75b9 014a b2b8
000002b0: b4f9 4bb9 ce34 68b8 ce8c c9b6 f0b6 d038
000002c0: 308a 2a39 be2c 2c38 cf1f 52b8 4ffe 1838
000002d0: 7032 75b7 8478 d637 51c1 b0b8 6c4f 8437
000002e0: 2daf 49ba 43bb dcb9 50f1 e738 3ce2 1839
000002f0: f75e 1fba c5b6 89b8 1ec8 d538 b866 ee37
00000300: 5da6 47b8 f2be a9b8 9517 4837 9294 a0ba
00000310: 6b4d deb9 df13 a638 d0f3 9bba e74d e5b9
00000320: 2c43 6438 612c 28b8 5090 3639 e972 8538
00000330: 6f33 6aba c0f1 50b9 5b8e 2139 faf1 53b7
00000340: 88c1 30b9 1006 60b8 e004 69ba 6628 edb8
00000350: e476 5fb9 70f4 7cba 5050 88ba 36ec da38
00000360: 2a77 2b38 f8f2 05b9 38f1 15b8 eb9f 58ba
00000370: 58c0 5eb9 8b4e 78ba 773d 29b8 6c78 30b9
00000380: 0c75 b5b8 adff 49ba e4c5 1cba 4693 6bba
00000390: 4895 1338 276c 58ba 1913 b238 e750 1b39
000003a0: a599 8eba 89d9 3bb9 e4f5 b6b7 3db7 4eb8
000003b0: a4d6 06b9 6963 86b8 329c e0b8 b64a 1eba
000003c0: bdad 0f39 25e7 03b8 3fa5 5cb8 5ceb ef38
000003d0: dfeb 69b9 e982 85b8 50a9 8238 8883 4eb8
000003e0: 67de b6b8 01d5 a938 14e1 0539 7590 1db8
000003f0: 9abe 16ba c83b 2aba fe4d e1b8 d35d 93ba

fc2.bias f4 [600]
-0.0019146501 -0.017570453 -0.026614038 -0.0036775651 -0.0014967269 -0.020949058 -0.02110422 -0.0031554762
-0.07811756 -0.00056215306 -0.0026959723 0.02503209 -0.0005720023 -0.003176559 0.00424302 -0.009234997
-0.024726188 -0.0874342 -0.000593556 -0.0046501406 -0.038230352 -0.014965206 -0.0037713263 -0.0037726276
-0.0027709622 -0.0034052164 -0.0029334475 -0.025053151 -0.0056536756 -0.06344908 -0.0015747859 -0.00058187934
-0.003142228 0.0112387445 -0.015825715 -0.002608173 -0.0026363195 -0.023671271 -0.022320721 -0.08635215
-0.0005091084 -0.09119267 -0.0037673942 -0.0037042946 -0.066511035 0.014401062 -0.014028809 -0.116339654
-0.00051365315 -0.020808399 -0.024133062 -0.005144986 -0.00058052054 -0.0031760992 -0.00058659835 0.077715315
-0.04782192 -0.022975137 -0.04926556 -0.0047711055 -0.0036420561 -0.0036182362 0.07231876 -0.017770885
-0.0036950521 -0.00035417444 -0.027048184 -0.0028595643 -0.0037711356 -0.0031765222 -0.0031747352 -0.0023461434
-0.07407102 0.17058612 -0.07317315 -0.078363456 0.08397075 -0.028308043 -0.0006216842 -0.0051060924
-0.0037656596 -0.0035557996 -0.0012544118 -0.09395902 -0.0037623283 -0.0031765047 -0.004641764 -0.09874158
-0.12445765 0.023250356 -0.0045058513 -0.0021682887 -0.0091969045 -0.002592021 -0.0049102916 -0.116795294
-0.00059019914 0.048752137 -0.10007974 -0.009415651 -0.015778793 -0.10586089 -0.017181477 -0.0019758039
-0.0036782355 -0.0005876321 -0.0019300943 -0.0077231782 -0.0031765692 -0.009155652 -0.014325748 -0.026016485
-0.09691586 -0.08372763 -0.117213614 0.022719642 -0.002196753 -0.0026404606 -0.0025607147 -0.0029893143
0.057927065 -0.002497971 -0.00059225265 -0.0037161722 -0.019899527 -0.0037605353 -0.023794241 -0.0005735295
-0.0010716231 -0.0037518733 -0.003412564 0.029405385 -0.0020734563 -0.020227645 -0.0030711254 -0.057399996
-0.061092548 -0.018830687 0.12765607 -0.0026043705 -0.00051483687 -0.0025607818 -0.00042395215 -0.0026044408
-0.0024317955 -0.0011112159 -0.0028419874 -0.003401339 -0.0026043442 -0.0031765504 0.11736257 0.1611569
0.21531747 -0.003770811 -0.074100025 -0.0005101219 0.031079186 -0.02149923 0.047822647 -0.001875801
-0.0047516446 -0.11478024 -0.12656955 -0.0022989768 -0.09826975 -0.02266129 -0.024143172 -0.0032249396
-0.087513715 -0.00232622 -0.0030590268 -0.0037732462 -0.0031328364 -0.0005899263 -0.0005916419 -0.10779509
-0.0036981243 -0.022282822 -0.09375959 -0.09989885 0.026401808 -0.012428295 -0.004207613 -0.003685393
-0.003568135 -0.00050537486 -0.006554681 -0.0005103477 -0.0035542303 -0.002870597 -0.010518558 -0.019394288
-0.0027551523 -0.0005074693 -0.107256934 0.0073041315 -0.0031765718 -0.013882458 -0.023058778 -0.003696953
0.12555633 -0.0031754782 -0.004818506 -0.047453262 -0.003688735 -0.023763718 -0.0172463 -0.0031765758
-0.0044926377 -0.0017824138 -0.00377205 -0.010767802 -0.0017172341 -0.0005186871 -0.0026565394 -0.011338937
-0.07849508 -0.0014586943 -0.002080404 0.08704112 -0.0005291506 -0.0005918512 -0.090035714 -0.023275496
-0.0023669621 -0.019801669 -0.024821578 -0.014967783 -0.00294764 -0.023965886 -0.10168128 0.013834705
-0.0024320441 0.117820084 -0.0010092832 -0.042511765 -0.14028847 0.00095661875 -0.032213684 0.024579551
-0.0028138885 -0.0037441496 -0.0022835897 0.118269004 -0.008518578 -0.0034399182 0.02685959 -0.004081266
-0.00239885 -0.020341957 -0.0018108409 -0.0037682417 -0.0037408161 -0.0022176423 -0.0050252327 -0.003602259
00000000: fff4 faba e9ef 8fbc af05 dabc 4e03 71bb
00000010: d22d c4ba 5c9d abbc c2e2 acbc 1bcc 4ebb
00000020: 19fc 9fbd 745d 13ba e9ae 30bb 1910 cd3c
00000030: 6df2 15ba d12d 50bb 0809 8b3b 634e 17bc
00000040: 938e cabc b410 b3bd de98 1bba 3560 98bb
00000050: 6e97 1cbd a030 75bc 5b28 77bb 303e 77bb
00000060: 0899 35bb 0d2a 5fbb 153f 40bb 443c cdbc
00000070: 7842 b9bb 97f1 81bd 0c69 ceba 4389 18ba
00000080: d6ed 4dbb b622 383c eea4 81bc e2ed 2abb
00000090: 1ac6 2cbb 41ea c1bc f2d9 b6bc 65d9 b0bd
000000a0: b075 05ba 39c3 babd 63e6 76bb c0c3 72bb
000000b0: f036 88bd 6ff2 6b3c 17d9 65bc 7c43 eebd
000000c0: aea6 06ba 6076 aabc b3b2 c5bc 4597 a8bb
000000d0: 132e 18ba 1a26 50bb f3c5 19ba 3529 9f3d
000000e0: ebe0 43bd 5b36 bcbc afca 49bd ef56 9cbb
000000f0: 90af 6ebb ee1f 6dbb dc1b 943d 3f94 91bc
00000100: b028 72bb 7db0 b9b9 2794 ddbc 8767 3bbb
00000110: 2825 77bb 332d 50bb 380f 50bb c1c1 19bb
00000120: 8cb2 97bd 21ae 2e3e cedb 95bd 057d a0bd
00000130: dbf8 ab3d 45e6 e7bc 85f8 22ba 0251 a7bb
00000140: 49c9 76bb 6b08 69bb 136b a4ba 966d c0bd
00000150: 6591 76bb e82c 50bb f019 98bb 0739 cabd
00000160: a7e3 febd 8877 be3c d2a5 93bb d919 0ebb
00000170: 9dae 16bc e5de 29bb 83e6 a0bb 5f32 efbd
00000180: 98b7 1aba 52b0 473d 9bf6 ccbd 1a44 1abc
00000190: 8742 81bc 98cd d8bd 2bc0 8cbc 7d7c 01bb
000001a0: 8d0e 71bb 530b 1aba 38fb fcba b712 fdbb
000001b0: fd2d 50bb 9601 16bc 8bb6 6abc 8620 d5bc
000001c0: d37b c6bd 6479 abbd b10d f0bd 8b1e ba3c
000001d0: 66f7 0fbb 940b 2dbb aad1 27bb 5fe8 43bb
000001e0: ee44 6d3d 00b5 23bb 6741 1bba 068b 73bb
000001f0: 5504 a3bc 5073 76bb 24ec c2bc ea58 16ba
00000200: b475 8cba fde1 75bb 53a5 5fbb 90e3 f03c
00000210: d3e2 07bb 72b4 a5bc ef44 49bb 421c 6bbd
00000220: 2e3c 7abd d042 9abc 46b8 023e 16ae 2abb
00000230: 1ef6 06ba cad2 27bb e545 deb9 44af 2abb
00000240: c25e 1fbb 38a6 91ba a340 3abb 00e9 5ebb
00000250: a5ad 2abb ac2d 50bb c95b f03d 5006 253e
00000260: 2f7c 5c3e b61f 77bb c1c1 97bd b4b9 05ba
00000270: c799 fe3c 271f b0bc aee1 433d 70dd f5ba
00000280: afb3 9bbb e711 ebbd 739b 01be 6eaa 16bb
00000290: a741 c9bd 2ba4 b9bc e7c7 c5bc 8259 53bb
000002a0: 643a b3bd 7f73 18bb f479 48bb 9148 77bb
000002b0: 4650 4dbb 49a5 1aba 6a18 1bba acc3 dcbd
000002c0: 3b5c 72bb 778a b6bc 0705 c0bd c597 ccbd
000002d0: 9b48 d83c 0ca0 4bbc 04e0 89bb a286 71bb
000002e0: 5fd7 69bb 227b 04ba a6c8 d6bb dbc8 05ba
000002f0: 17ee 68bb a020 3cbb 0856 2cbc c5e0 9ebc
00000300: c98f 34bb b007 05ba 86a9 dbbd 7f57 ef3b
00000310: 082e 50bb 4073 63bc c3e5 bcbc 9448 72bb
00000320: d791 003e af1b 50bb 8fe4 9dbb 5a5e 42bd
00000330: b4be 71bb 21ac c2bc 1d48 8dbc 192e 50bb
00000340: fa36 93bb e29f e9ba 7f34 77bb 6f6b 30bc
00000350: d114 e1ba 81f8 07ba 5619 2ebb f3c6 39bc
00000360: 07c2 a0bd a931 bfba 6357 08bb 9d42 b23d
00000370: b2b6 0aba 7626 1bba a564 b8bd 41ac bebc
00000380: 091f 1bbb 1c37 a2bc 9f56 cbbc 6f3b 75bc
00000390: 312d 41bb 1b54 c4bc 463e d0bd f5aa 623c
000003a0: ee62 1fbb a84b f13d ed49 84ba d120 2ebd
000003b0: c8a7 0fbe 99c5 7a3a 7ff2 03bd 0e5b c93c
000003c0: 3769 38bb 6860 75bb 47a8 15bb 0537 f23d
000003d0: 8191 0bbc 4070 61bb a508 dc3c 24bc 85bb
000003e0: 0636 1dbb 2da4 a6bc bd59 edba 9bf4 76bb
000003f0: 7b28 75bb dd55 11bb b5aa a4bb e113 6cbb

steering.weight f4 [1, 600]
1.5726186e-05 -0.0091264965 0.020057553 -0.0030144998 0.0009688218 -0.040080015 0.0027967284 -0.002138055
0.48463687 3.0362735e-05 0.0012491113 -0.24530533 -7.9687525e-05 -0.003133285 -0.13401774 -0.0131068025
-0.0006251844 0.006148851 0.00015390458 -0.0029534684 -0.18724646 -0.21655157 -0.0030927553 -0.003080282
-0.0027986576 0.0027781015 0.0044463007 -0.001685092 -0.0006953795 1.2389534 0.0014418426 4.8619007e-05
-0.0031393163 -0.31314036 -0.00096566684 0.0024209896 -0.0018605306 -0.0021902497 0.0044086166 0.74003834
3.5771453e-05 0.002052388 -0.003007418 0.0031340213 0.11263025 -0.23655789 0.008527949 0.5724261
-4.7063426e-05 0.0031149257 -0.0009949502 0.00055841095 -8.3630775e-06 0.0031179765 -5.458493e-06 -0.24463114
-0.0610281 0.003958621 -1.2158772 -0.0030028275 0.0014758433 0.0012001556 -0.92760247 0.0018176885
0.003175217 0.00065895764 9.4096795e-05 -0.0028541011 -0.0031309864 -0.0031405278 0.0030549017 0.0011053781
0.7611334 -0.26151982 -0.032498475 -0.023491861 -0.23034807 -0.081247024 8.1171216e-05 -0.0037070757
-0.0030902256 -0.002900928 -4.8345595e-05 0.020689655 0.003099406 -0.0028935769 0.00390723 0.75437766
0.76110744 -0.18177494 0.004005169 0.002045046 -0.002537376 0.0020315438 0.0031519495 0.20358594
-7.6398144e-05 -0.58020073 0.8009192 -0.014097158 0.0013596695 0.6612681 -1.2964853 -0.001894978
0.0031193777 -9.1510556e-05 -0.0009742799 0.0007471363 0.0030683428 -0.014181909 0.0020632488 -0.16516073
0.45177385 0.54587954 0.20818655 -0.301699 -0.00284666 0.0025312817 -0.0024210226 -0.0041900063
0.009738318 -0.0024135553 -1.0100629e-05 0.003131134 0.00237871 0.0031372753 0.0051557566 5.197116e-05
0.001526453 0.0031479078 0.003417791 0.079426154 -0.0019012972 0.0014529502 0.0030641104 -0.4951939
0.69818425 0.0036657664 -0.05906357 -0.002537424 -9.947769e-05 -0.0022928575 0.0025424527 -0.0024289961
-0.0023997673 0.00085498986 0.0027684495 -0.0012531816 -0.002537399 -0.0030732248 -0.8982078 -0.123541676
0.04348457 -0.0031258147 0.12980221 -4.4674503e-05 -0.34699205 -0.14511867 -0.13987413 9.29694e-05
0.0005949725 0.2425723 0.75548065 -0.0022738364 0.27063656 -0.0018833452 -0.0020072113 -0.0027401072
0.33062145 0.0017136788 -0.0023593728 -0.0028349457 -0.0016681192 -0.00011284974 3.411927e-05 0.32466125
0.0030260626 -0.009223955 0.8175869 0.73481894 -0.27263376 0.0015892196 -0.00804209 0.003116317
-0.0025812371 6.896655e-06 -0.030054135 -2.7382335e-05 -0.0025651506 0.0029418105 0.071574815 0.001803565
-0.0026541317 7.547772e-05 0.96970814 -0.3733893 -0.0030219746 -0.18986127 -0.01854399 0.0028604737
-0.15218703 -0.003111986 -0.0058246134 0.07734741 -0.0031633566 -0.0010123971 0.0021339078 -0.003049872
0.0016107077 0.0010347156 -0.0030830586 -0.017532418 -0.00167534 4.2766085e-05 0.0029558986 -0.016227514
0.5429789 -0.0014488741 -0.0019628028 -0.19928876 -4.2079704e-05 6.8345944e-05 0.4351342 0.003692585
-0.002324447 0.002302681 -0.00056505273 -0.00020076754 -0.0021877734 0.0016326661 0.67574584 0.06582736
-0.0023639877 0.015310869 -0.0012167287 0.6626905 0.50434923 -0.24074426 0.0152888065 0.10370928
-0.0027453043 0.00013288143 -0.0021131404 -0.29215753 -0.013543397 -0.002675424 -0.25840148 0.0035752614
0.0017711428 0.002938166 0.0010018114 -0.003143542 -0.003099883 -0.0021710256 -0.001127529 0.0010734294
00000000: baeb 8337 4d87 15bc bd4f a43c ea8e 45bb
00000010: 88f8 7d3a f12a 24bd 5149 373b 9c1e 0cbb
00000020: 5322 f83e 7ab3 fe37 38b9 a33a 5231 7bbe
00000030: ea1d a7b8 cd57 4dbb f23b 09be eabd 56bc
00000040: 6ae3 23ba 4d7c c93b 7261 2139 fa8e 41bb
00000050: 89bd 3fbe b2bf 5dbe d3af 4abb 8ede 49bb
00000060: af69 37bb cf10 363b 46b2 913b 4ede dcba
00000070: 214a 36ba 0696 9e3f 36fc bc3a 43ec 4b38
00000080: fdbc 4dbb ef53 a0be ce24 7dba 77a9 1e3b
00000090: 0cdd f3ba 4b8a 0fbb 2876 903b 2773 3d3f
000000a0: 4e09 1638 5b81 063b 1a18 45bb 2764 4d3b
000000b0: b0aa e63d 3b3c 72be d0b8 0b3c 848a 123f
000000c0: f865 45b8 c823 4c3b fd68 82ba 5362 123a
000000d0: 254f 0cb7 f756 4c3b 1928 b7b6 9680 7abe
000000e0: 9af8 79bd 52b7 813b dda1 9bbf 16cb 44bb
000000f0: 1571 c13a 8a4e 9d3a 5b77 6dbf 813f ee3a
00000100: 4d17 503b e6bd 2c3a d555 c538 df0b 3bbb
00000110: 3c31 4dbb 50d1 4dbb bf34 483b 56e2 903a
00000120: a3d9 423f ede5 85be 1f1d 05bd 0172 c0bc
00000130: 5de0 6bbe d764 a6bd 773a aa38 69f2 72bb
00000140: 6285 4abb 7f1d 3ebb b0c6 4ab8 5a7d a93c
00000150: 671f 4b3b 2aa2 3dbb 3908 803b e51e 413f
00000160: f0d7 423f 3623 3abe cb3d 833b 2e06 063b
00000170: 1b4a 26bb a623 053b f090 4e3b d578 503e
00000180: f137 a0b8 0988 14bf 0a09 4d3f c4f7 66bc
00000190: f036 b23a de48 293f 3bf3 a5bf e960 f8ba
000001a0: 796e 4c3b 5be9 bfb8 d166 7fba 78db 433a
000001b0: 4016 493b 3d5b 68bc 9237 073b e51f 29be
000001c0: e74e e73e c3be 0b3f db2e 553e 4b78 9abe
000001d0: 088f 3abb dce3 253b 05aa 1ebb 524c 89bb
000001e0: 778d 1f3c bd2c 1ebb df75 29b7 b633 4d3b
000001f0: 22e4 1b3b bf9a 4d3b 9ff1 a83b 9cfb 5938
00000200: 4313 c83a 214d 4e3b 05fd 5f3b 2eaa a23d
00000210: f334 f9ba eb70 be3a 3ecf 483b 0e8a fdbe
00000220: 34bc 323f 5b3d 703b a4ec 71bd e94a 26bb
00000230: ae9e d0b8 c443 16bb 479f 263b cb2f 1fbb
00000240: 6a45 1dbb 6621 603a e06e 353b cc41 a4ba
00000250: 7e4a 26bb 2868 49bb f2f0 65bf 6b03 fdbd
00000260: e01c 323d 78da 4cbb dfea 043e e260 3bb8
00000270: f1a8 b1be fd99 14be 2a3b 0fbe 91f8 c238
00000280: eef7 1b3a df64 783e 2e67 413f a504 15bb
00000290: e090 8a3e 94da f6ba 6b8b 03bb 5f93 33bb
000002a0: 3747 a93e 859d e03a b59f 1abb 7fca 39bb
000002b0: cba4 daba bea9 ecb8 4a1b 0f38 003a a63e
000002c0: e850 463b 1220 17bc 604d 513f 181d 3c3f
000002d0: a796 8bbe 5c4d d03a f8c2 03bc 203b 4c3b
000002e0: f929 29bb d169 e736 1734 f6bc 1eb3 e5b7
000002f0: 161c 28bb 64cb 403b d195 923d 9965 ec3a
00000300: f1f0 2dbb cb49 9e38 cb3e 783f e22c bfbe
00000310: 520c 46bb fe6a 42be 91e9 97bc c976 3b3b
00000320: ebd6 1bbe 76f2 4bbb 66dc bebb 5268 9e3d
00000330: 5150 4fbb 69b2 84ba 08d9 0b3b 5ce0 47bb
00000340: 621e d33a 4b9f 873a 240d 4abb 25a0 8fbc
00000350: 1597 dbba bc5f 3338 c0b7 413b 90ef 84bc
00000360: aa00 0b3f 26e8 bdba 5ea2 00bb 5a12 4cbe
00000370: bd7e 30b8 f354 8f38 e9c9 de3e 4cff 713b
00000380: c055 18bb 94e8 163b 0c20 14ba 2085 52b9
00000390: bf60 0fbb 2fff d53a aefd 2c3f 7fd0 863d
000003a0: 22ed 1abb 70da 7a3c a47a 9fba 16a6 293f
000003b0: 081d 013f aa85 76be e77d 7a3c 8865 d43d
000003c0: 90ea 33bb 1656 0b39 9d7c 0abb ac95 95be
000003d0: 20e5 5dbc 2b56 2fbb 334d 84be ef4e 6a3b
000003e0: b125 e83a 3f8e 403b 364f 833a e203 4ebb
000003f0: 6827 4bbb c447 0ebb 98c9 93ba 50b2 8c3a

acceleration.weight f4 [1, 600]
3.8842318e-05 -0.007911066 1.0788869 -7.9244135e-05 0.00039185584 0.00010212466 0.5749301 6.475939e-05
-0.5671904 1.8798346e-05 0.0053777797 0.13738981 0.00021228954 -6.2310837e-06 0.28631583 0.44063336
0.8506707 4.432833 -1.6637816e-05 0.0026010864 0.32206875 1.0528694 0.00015811989 0.00011574129
0.0027207688 -0.0031108751 0.007893471 0.84535563 -0.0031806198 -0.5008258 0.0010852212 4.4667722e-05
0.00012854075 2.0008175 0.66839427 9.778767e-05 0.01113424 0.84167165 0.5954046 0.77947855
-6.5715336e-05 4.365922 0.002786634 0.00010126481 -0.49511036 5.3358393 -0.022726625 0.86027473
-2.6387932e-05 0.6001923 0.84443504 -0.0037472912 7.035604e-05 -2.8095863e-05 7.4589625e-05 0.33500695
0.41484392 0.6056283 1.2423773 0.004559278 0.00012598313 0.015811518 2.5504868 0.50401556
2.9672874e-05 0.0004957923 0.8130935 0.003254258 0.00327442 0.00065521046 -9.403879e-05 -0.0024028788
-0.58076847 5.6926723 0.72114635 1.3113053 0.8429874 1.6592695 -4.8181297e-05 0.007842261
9.8612036e-05 0.003086717 -0.00011759453 1.3181353 0.00016386932 5.430066e-05 -0.0039745946 -0.6354678
0.74217683 2.7683659 0.003635924 -3.9607756e-05 0.001723889 1.1839594e-05 0.0029100694 1.302458
0.00021003974 3.132979 0.8340879 0.4407377 0.49820736 0.7621334 1.1865159 0.0018584146
7.444013e-05 0.00011907504 0.0023788614 0.006293996 -1.884695e-05 0.44105735 0.48853272 4.814602
-0.57520753 -0.48188323 1.2996165 2.1956413 0.004133106 7.990697e-05 0.0022767766 0.7204078
5.010438 0.0025264076 0.00012648548 -9.268499e-05 0.5128649 0.00015857977 0.5960149 -8.0692356e-05
0.007379316 5.4646447e-05 -0.0011804394 6.227238 0.0018574733 0.5214416 0.23651499 1.8467216
-0.6012235 0.57812715 -0.60809004 0.0024283861 2.8689783e-05 0.0025311445 0.007366915 0.0026382045
0.002461239 0.00087210553 0.0036023846 -3.1829648e-05 0.002532887 5.3227795e-05 1.0432361 4.170812
-1.3042461 7.621706e-05 3.0882063 7.242577e-05 0.27879843 0.14985806 1.312257 0.000918758
0.0051855505 0.90248656 0.71518165 0.0023570405 4.2519984 0.8164293 0.8483038 0.00012890322
-0.6007469 0.00014798268 -3.680745e-07 -5.892676e-05 0.00048698444 0.00029232173 0.00010354469 4.776075
5.2026313e-05 0.827026 -0.5450118 0.8364565 0.4548119 0.489036 0.4707677 -1.7294784e-05
0.00025727806 -1.2086826e-05 0.7543987 -0.00018183251 0.0030884102 0.003167758 -0.04047625 0.5783616
0.0026800213 -4.53913e-05 -0.44374886 -0.15529355 -3.2461387e-05 0.11168466 0.41661143 8.401099e-05
3.8959284 0.000659208 0.47848868 0.7614817 7.70642e-05 0.56552845 0.51371056 6.7002275e-06
0.0026038534 0.004802362 0.00012748924 0.4251193 0.0020828862 -3.9948325e-05 0.007615207 0.760147
-0.4762311 0.0012834017 0.0020922788 4.9927306 7.25548e-05 0.00010905456 -0.33179367 0.59528106
0.0023733755 0.5704107 0.86566275 0.48607016 -0.0029198064 0.5857952 0.78075826 5.507582
0.0022567909 5.0491176 0.001543284 0.9615288 0.8384163 5.2105436 0.92589605 1.6086491
-0.0030047907 0.0029966233 0.0020378914 0.16831858 0.43905112 0.0031403105 -0.42147565 0.003472996
0.00012303796 0.5666656 0.022318453 8.39341e-05 -0.000131425 0.0022046685 -0.0023560477 0.024645805
00000000: 9fea 2238 6a9d 01bc f718 8a3f df2f a6b8
00000010: 0072 cd39 c22b d638 9e2e 133f 6fcf 8738
00000020: 6433 11bf 24b1 9d37 1638 b03b eaaf 0c3e
00000030: 0a9a 5e39 9a14 d1b6 fd97 923e b29a e13e
00000040: 8ec5 593f c5d9 8d40 7091 8bb7 fd76 2a3b
00000050: 32e6 a43e 6dc4 863f fccc 2539 22ba f238
00000060: ed4e 323b d3df 4bbb 9e53 013c 3a69 583f
00000070: f271 50bb 1f36 00bf fb3d 8e3a 9a59 3b38
00000080: e5c8 0639 650d 0040 e31b 2b3f 5b13 cd38
00000090: 636c 363c cb77 573f 706c 183f e88b 473f
000000a0: a7d0 89b8 a2b5 8b40 f69f 363b 225e d438
000000b0: 1b7f fdbe 32bf aa40 302d babc f73a 5c3f
000000c0: a75b ddb7 34a6 193f e52c 583f 1d95 75bb
000000d0: 1d8c 9338 68af ebb7 006d 9c38 0886 ab3e
000000e0: 6c66 d43e 750a 1b3f 3806 9f3f ff65 953b
000000f0: 571a 0439 2887 813c 2d3b 2340 2a07 013f
00000100: 03ea f837 0ff8 013a e526 503f 6445 553b
00000110: a797 563b 6ec2 2b3a b136 c5b8 9e79 1dbb
00000120: 3ead 14bf 5f2a b640 0c9d 383f dad8 a73f
00000130: 06ce 573f f162 d43f 4616 4ab8 d47c 003c
00000140: efcd ce38 854a 4a3b 159d f6b8 a8b8 a83f
00000150: 56d4 2b39 e4c0 6338 513d 82bb 05ae 22bf
00000160: 4dff 3d3f e82c 3140 af48 6e3b 8120 26b8
00000170: 1ef4 e13a aba2 4637 ddb6 3e3b f2b6 a63f
00000180: 1d3e 5c39 ba82 4840 c986 553f 5fa8 e13e
00000190: 0915 ff3e 2d1b 433f c1df 973f 0c96 f33a
000001a0: be1c 9c38 edb7 f938 ace6 1b3b dd3d ce3b
000001b0: 8419 9eb7 45d2 e13e f620 fa3e 3811 9a40
000001c0: cd40 13bf 66b9 f6be d559 a63f 6385 0c40
000001d0: 026f 873b ba93 a738 f935 153b a56c 383f
000001e0: 8255 a040 1692 253b 30a1 0439 e05f c2b8
000001f0: 1d4b 033f 6f48 2639 6f94 183f 6139 a9b8
00000200: 30ce f13b 2d34 6538 f9b8 9aba 8945 c740
00000210: 7676 f33a 327d 053f fc30 723e 6061 ec3f
00000220: c9e9 19bf 2400 143f caab 1bbf 8f25 1f3b
00000230: d7aa f037 8fe1 253b 2966 f13b bae5 2c3b
00000240: bd4c 213b 039e 643a fc15 6c3b d380 05b8
00000250: cbfe 253b e940 5f38 c388 853f 4b77 8540
00000260: 89f1 a6bf b9d6 9f38 2ca5 4540 4ae3 9738
00000270: abbe 8e3e 6474 193e 0af8 a73f ced8 703a
00000280: 8deb a93b 5c09 673f 2516 373f 9478 1a3b
00000290: 5f10 8840 8301 513f 702a 593f 322a 0739
000002a0: 8dca 19bf cc2b 1b39 c69b c5b4 2028 77b8
000002b0: f251 ff39 c242 9939 2226 d938 9bd5 9840
000002c0: d436 5a38 fab7 533f e585 0bbf 0322 563f
000002d0: 1bdd e83e ed62 fa3e 7708 f13e 4414 91b7
000002e0: 47e3 8639 86c8 4ab7 4620 413f 4baa 3eb9
000002f0: ed66 4a3b 299a 4f3b 6dca 25bd 810f 143f
00000300: 4ca3 2f3b 8a62 3eb8 0d33 e3be 4605 1fbe
00000310: 2627 08b8 edba e43d 184e d53e 0f2f b038
00000320: e456 7940 b3ce 2c3a 78fc f43e 77f0 423f
00000330: 879d a138 79c6 103f 8982 033f 84d2 e036
00000340: 69a5 2a3b 225d 9d3b a2ae 0539 3da9 d93e
00000350: 0881 083b 308e 27b8 fd88 f93b fe98 423f
00000360: 90d4 f3be d137 a83a 9d1e 093b 73c4 9f40
00000370: 9028 9838 39b4 e438 dce0 a9be 5764 183f
00000380: a28a 1b3b 7006 123f 139c 5d3f 30de f83e
00000390: 395a 3fbb adf6 153f c6df 473f 1d3e b040
000003a0: abe6 133b 5f92 a140 0548 ca3a c026 763f
000003b0: 73a2 563f c6bc a640 8607 6d3f 37e8 cd3f
000003c0: 06ec 44bb ff62 443b 258e 053b b55b 2c3e
000003d0: 4fcb e03e abcd 4d3b a8cb d7be 349b 633b
000003e0: c003 0139 ff10 113f 30d5 b63c c705 b038
000003f0: 21cf 09b9 337c 103b ec67 1abb 00e6 c93c

brake.weight f4 [1, 600]
-9.7707016e-05 -0.005749759 -1.1502867 2.6901007e-05 -0.00025802082 0.0080658505 -0.68255204 -9.364486e-05
0.24480228 7.7162695e-05 -2.7289327e-06 -1.7171402 0.00018237617 9.70885e-06 -0.46058467 -0.548449
-0.94490165 -3.506545 2.322862e-05 0.003495809 -0.6301061 -1.1918145 -0.0001222807 -6.408836e-05
0.0025699916 0.0031054972 0.015768684 -0.94044274 -0.0045752875 0.3754824 -0.0010068588 9.155426e-05
3.2277752e-05 -1.7104282 -0.7782515 -0.00010657658 -0.012336243 -0.93699193 -0.7015638 -0.9646813
-2.2349788e-05 -3.4608312 -8.774971e-05 6.9866044e-05 0.4123212 -5.144672 0.017970834 -1.2439804
8.298195e-06 -0.7059908 -0.93952745 0.00024228267 -1.2902408e-05 5.6798148e-05 2.516122e-05 0.43954313
-0.11864477 -0.71029204 -1.4199862 -0.0029994608 4.4686927e-05 -0.014346569 -2.931212 -0.6149753
0.00015008583 -0.0008725152 -0.9115229 -0.0031105508 -9.578373e-05 -0.0015105271 -8.253003e-05 -0.0030210484
0.3842942 -5.3697476 -0.47698402 -1.1269581 -0.69280106 -1.1949593 -6.9953814e-05 0.005292712
0.00024552242 -0.0033707921 9.336674e-05 -0.32086158 -0.000121651006 -7.759379e-05 0.00394181 0.46841562
-0.9838298 -1.9330071 0.0018757553 -7.8324985e-05 -0.0026933756 -6.0109464e-06 0.0029354203 -1.276798
1.2085347e-05 -2.718898 -0.9965587 -0.54813826 -0.6085246 -0.96321833 -1.4443185 -0.0018469115
-8.8557084e-05 -0.00017464573 -0.009551774 0.0011649197 1.5762993e-05 -0.55038846 -0.6010042 -3.6489098
0.36065033 0.14059472 -1.2885928 -3.1348765 -0.0038033656 3.345842e-05 0.0023845688 -0.83457816
-9.053708 0.0023501888 -6.945896e-05 0.00016568472 -0.6240533 2.0496764e-05 -0.7021529 -5.3094234e-05
0.00037046065 -8.6757726e-05 -0.0017170752 -7.981706 0.00031007032 -0.6326233 -0.23253019 -1.9070436
0.26957977 -0.68593425 0.39413607 0.002424348 -3.4509867e-06 0.0027066814 5.079698e-05 0.002752194
0.0023091445 -0.00067650643 -0.0033505997 -0.001000356 0.0026779585 0.00010080916 -0.21203606 -2.2300725
-0.015689211 -0.00015296388 -2.5835733 -8.949616e-05 -0.51189965 -0.64463603 0.123057626 -0.0010099428
0.0071248445 -1.1442773 -0.8944794 0.0023468868 -3.5671713 -0.9146584 -0.94328606 -0.0019410796
0.33467785 7.490046e-05 -3.048578e-05 6.4705773e-07 -0.001959737 -4.1185747e-05 -4.260007e-05 -3.7471106
9.275106e-05 -0.92402565 0.36871052 -0.9949381 -1.115116 -0.600142 -0.5813506 0.00011530984
-0.0006290177 6.17257e-05 -0.8589729 0.00016766046 -0.0030001637 -0.0031714109 -0.021682657 -0.68625015
0.002730645 0.000246504 0.1522331 -1.523374 0.00017613146 -0.50988525 -0.54948413 6.538861e-05
-4.037146 -0.0014551559 -0.5904423 -0.71704084 8.7929504e-05 -0.67955154 -0.6252109 -0.0016210825
-0.0007779372 3.399527e-05 -0.00013132908 -0.53392744 -0.0019105742 0.00013455625 -0.0067897746 -0.862402
0.17665821 -0.0012272964 -0.0019346257 -4.2025037 -1.5918748e-05 0.00012541204 0.38630453 -0.7005928
0.002337266 -0.6787997 -0.95782167 -0.5976353 -0.0037679398 -0.69151455 -0.9586311 -8.488111
0.002507483 -8.132315 -0.0016560331 -1.5758506 -1.0870373 -5.1315947 -1.0110468 0.1884303
-0.003260703 -3.6647605e-05 0.0017787359 -0.22294767 -0.54804116 -0.0031832764 0.27578893 -0.0037920116
-1.8174203e-05 -0.67584616 -0.02466843 -6.1965104e-05 3.8164853e-06 -0.00015831801 0.0022993458 -0.016212134
00000000: 0ee8 ccb8 7968 bcbb 983c 93bf 79a9 e137
00000010: f846 87b9 a126 043c bbbb 2ebf 3463 c4b8
00000020: 73ad 7a3e 68d2 a138 b522 37b6 40cb dbbf
00000030: 3b3c 3f39 31e3 2237 c1d1 ebbe 2767 0cbf
00000040: 13e5 71bf 3c6b 60c0 15db c237 f119 653b
00000050: a24e 21bf 618d 98bf 7a38 00b9 2d67 86b8
00000060: 4e6d 283b 9985 4b3b 542d 813c dbc0 70bf
00000070: 4bec 95bb 3b3f c03e 93f8 83ba d200 c038
00000080: f961 0738 50ef dabf 7e3b 47bf de81 dfb8
00000090: f41d 4abc b4de 6fbf af99 33bf 5bf5 76bf
000000a0: ce7b bbb7 427e 5dc0 4406 b8b8 0c85 9238
000000b0: c41b d33e 27a1 a4c0 9237 933c c03a 9fbf
000000c0: 7a38 0b37 d0bb 34bf df84 70bf 420d 7e39
000000d0: 6c77 58b7 8c3a 6e38 4f11 d337 cc0b e13e
000000e0: 07fc f2bd b3d5 35bf 1cc2 b5bf 9a92 44bb
000000f0: 396e 3b38 df0d 6bbc fa98 3bc0 056f 1dbf
00000100: 5c60 1d39 81b9 64ba 9159 69bf 62da 4bbb
00000110: 80df c8b8 e1fc c5ba f913 adb8 c8fc 45bb
00000120: 36c2 c43e f9d4 abc0 4037 f4be 2a40 90bf
00000130: 695b 31bf 6df4 98bf 2bb4 92b8 7c6e ad3b
00000140: 76b9 8039 82e8 5cbb e3cd c338 f847 a4be
00000150: e31e ffb8 d9b9 a2b8 4d2a 813b 2cd4 ef3e
00000160: 45dc 7bbf c76c f7bf e7db f53a 6842 a4b8
00000170: 5883 30bb a3b1 c9b6 2e60 403b 1e6e a3bf
00000180: 2cc2 4a37 6d02 2ec0 791e 7fbf ca52 0cbf
00000190: 45c8 1bbf 7a95 76bf 6edf b8bf 1114 f2ba
000001a0: b9b7 b9b8 1b21 37b9 0b7f 1cbc 38b0 983a
000001b0: c53a 8437 42e6 0cbf 69db 19bf bd87 69c0
000001c0: 29a7 b83e 10f8 0f3e 9cf0 a4bf d1a1 48c0
000001d0: e341 79bb b455 0c38 6d46 1c3b eaa6 55bf
000001e0: fddb 10c1 a005 1a3b 7faa 91b8 a7bb 2d39
000001f0: f5c1 1fbf 77f0 ab37 4bc0 33bf 80b1 5eb8
00000200: 633a c239 b3f1 b5b8 7c0f e1ba 236a ffc0
00000210: ef90 a239 9af3 21bf 651c 6ebe 011a f4bf
00000220: 5c06 8a3e 6399 2fbf 34cc c93e cfe1 1e3b
00000230: 8097 67b6 9462 313b d80e 5538 275e 343b
00000240: 0455 173b 9457 31ba bc95 5bbb 611e 83ba
00000250: b080 2f3b 8169 d338 fb1f 59be 82b9 0ec0
00000260: a986 80bc ee64 20b9 4459 25c0 e3af bbb8
00000270: db0b 03bf de06 25bf a305 fc3d 0f60 84ba
00000280: 8777 e93b ae77 92bf 9afc 64bf 3ace 193b
00000290: 894c 64c0 0e27 6abf 327b 71bf d36b feba
000002a0: e55a ab3e e113 9d38 b7bb ffb7 78b1 2d35
000002b0: ee6e 00bb dcbe 2cb8 7aad 32b8 a9d0 6fc0
000002c0: 5983 c238 f28c 6cbf a0c7 bc3e 43b4 7ebf
000002d0: 1fbc 8ebf e8a2 19bf 65d3 14bf 80d2 f138
000002e0: aae4 24ba bc72 8138 a6e5 5bbf 03ce 2f39
000002f0: 659e 44bb 72d7 4fbb d49f b1bc 17ae 2fbf
00000300: 9ff4 323b 353d 8139 fee2 1b3e ebfd c2bf
00000310: eeaf 3839 d787 02bf feaa 0cbf 3e21 8938
00000320: 4d30 81c0 eeba beba 3a27 17bf fd8f 37bf
00000330: cb66 b838 17f7 2dbf d20d 20bf 817a d4ba
00000340: 7bee 4bba 2596 0e38 62b5 09b9 78af 08bf
00000350: 3b6c faba ab17 0d39 c27c debb 61c6 5cbf
00000360: e4e5 343e 3cdd a0ba 4493 fdba e97a 86c0
00000370: 4089 85b7 0a81 0339 b5c9 c53e 0d5a 33bf
00000380: d12c 193b d1c5 2dbf cd33 75bf a1fe 18bf
00000390: 8aef 76bb 1907 31bf d968 75bf 4dcf 07c1
000003a0: 9554 243b f61d 02c1 400f d9ba 79b5 c9bf
000003b0: 0a24 8bbf 0636 a4c0 fb69 81bf dff3 403e
000003c0: 85b1 55bb 11b6 19b8 7924 e93a 654c 64be
000003d0: 6d4c 0cbf 849e 50bb 3534 8d3e 6683 78bb
000003e0: ce74 98b7 4104 2dbf 7315 cabc 43f3 81b8
000003f0: 5c0f 8036 2b02 26b9 9fb0 163b 4fcf 84bc
