PPO/actormodel.pth (torch_old, 774097 bytes, 8 tensors)

fc1.weight f4 [300, 29]
0	0xbdfc97ae	-0.12333618
1	0xbdc7a06e	-0.097473964
2	0xbd2dbf54	-0.042418793
3	0x3c81408a	0.015777845
4	0x3e10a413	0.1412509
5	0xbc96ac4e	-0.018392708
6	0xbc8f8d10	-0.017523319
7	0x3a929bff	0.0011185406
8	0xbe3594de	-0.1773257
9	0x3e099dab	0.13439052
10	0xbe41a1e8	-0.18909419
11	0xbdefef15	-0.11715523
12	0xbe0fddc4	-0.1404944
13	0xbe1b8afc	-0.15189737
14	0x3db20bb5	0.08693639
15	0xbbb30f4e	-0.005464471
16	0xbd20bf95	-0.039245207
17	0xbe1417d3	-0.14462213
18	0xbe19b0f0	-0.15008903
19	0x3d5b9dfc	0.053617463
20	0xbe095100	-0.13409805
21	0x3d639512	0.055562086
22	0xbc924d3c	-0.017859094
23	0x3e1073e7	0.14106713
24	0x3b5b0355	0.0033418734
25	0x3d71f0d6	0.05906757
26	0x3c8b19e0	0.016980112
27	0xbe10ea06	-0.14151773
28	0x3c1255e7	0.0089316135
29	0x3eb8642f	0.36013934
30	0xbd745394	-0.05965002
31	0x3df0911a	0.11746426
32	0xbe311483	-0.17292981
33	0x3e17ed6b	0.14836662
34	0xbe1cf6c2	-0.15328506
35	0xbbdc5f4a	-0.0067252265
36	0x3d98a0e7	0.07452565
37	0x3d299242	0.041399248
38	0xbdd8165d	-0.105511405
39	0x3e2c29f5	0.1681288
40	0xbcc908fe	-0.02454042
41	0xbdae11cc	-0.08499488
42	0xbc83eb2d	-0.016103351
43	0x3e1d152a	0.15340105
44	0xbe31977d	-0.17342944
45	0xbe0ebd1b	-0.13939326
46	0xbe38303b	-0.17987148
47	0xbe12e9be	-0.14346978
48	0xbdab2ac1	-0.08357764
49	0x3e25b5d9	0.1618265
50	0x3ddd1fcf	0.10797083
51	0xbe801ab7	-0.25020382
52	0x3e968c2b	0.29403815
53	0xbd122535	-0.035680015
54	0x3df4c160	0.11950946
55	0x3e154065	0.14575346
56	0xbbd475e6	-0.006483781
57	0x3ce8ff29	0.028441982
58	0x3e539e89	0.20665945
59	0x3d9dd308	0.07706267
60	0xbcc83290	-0.024438173
61	0x3d18644f	0.037205037
62	0xbdee4bff	-0.11635589
63	0xbdd22198	-0.10260314
64	0xbd75e7db	-0.060035568
65	0xbdbb1f12	-0.091367856
66	0xbdfb4e71	-0.12270821
67	0x3d6e02f1	0.058108274
68	0x3d1d4917	0.038399782
69	0xbdd2b482	-0.102883354
70	0x3d1d60d4	0.03842242
71	0xbe102609	-0.1407701
72	0xbe1a30b6	-0.15057644
73	0xbdd2afb8	-0.10287422
74	0xbe49796a	-0.19675222
75	0xbe59c408	-0.21266186
76	0xbe6e7c7a	-0.23289672
77	0x3e4d349a	0.20039597
78	0xbe08f7c7	-0.1337577
79	0xbbee7a4e	-0.0072777634
80	0xbe403b20	-0.18772554
81	0x3d66bc0b	0.056331675
82	0x3e348ba3	0.17631392
83	0xbc0337bb	-0.008008893
84	0x3e2cfc89	0.1689321
85	0x3d02945d	0.03187977
86	0x3dcd14f5	0.10013763
87	0xbcd8940b	-0.02643778
88	0x3e4066a5	0.18789156
89	0x3e831c85	0.25607696
90	0x3e7b268a	0.2452642
91	0x3db72e68	0.08944398
92	0xbd619f6d	-0.05508368
93	0x3de5f932	0.11229171
94	0xbd86b1b9	-0.06576867
95	0x3c7e8353	0.01553424
96	0x3e0a2102	0.13489154
97	0x3e1b0fbb	0.1514272
98	0xbae5af62	-0.0017523582
99	0x3d686d29	0.05674473
100	0x3c8ffa4e	0.01757541
101	0x3dcbcf10	0.099516034
102	0x3e4e2c19	0.2013401
103	0xbb1cd538	-0.00239308
104	0x3e459bb0	0.19297671
105	0xbd63a22f	-0.055574592
106	0xbdaee3fb	-0.085395776
107	0x3c270a12	0.010195272
108	0xbd3db8f7	-0.046318974
109	0xbe8053f8	-0.25064063
110	0x3e586c54	0.21135074
111	0xbe215aff	-0.15757369
112	0xbdb99cf7	-0.09063142
113	0xbdff3a5e	-0.124623045
114	0x3ba1c998	0.004937362
115	0x3dae4967	0.08510094
116	0x3ddc4e8d	0.1075717
117	0xbe361f14	-0.17785293
118	0xbdb49286	-0.0881701
119	0xbd197161	-0.037461642
120	0xbdc9d8a1	-0.09855772
121	0x3da1d150	0.07901251
122	0xbe0bbaa2	-0.13645414
123	0x3e162c06	0.14665231
124	0x3dc1c37d	0.094611146
125	0x3e0bc28f	0.13648437
126	0x3dff190f	0.124559514
127	0xbd7f2b08	-0.062296897
128	0xbe4d2159	-0.20032252
129	0xbba10368	-0.004913736
130	0xbb315372	-0.0027057794
131	0x3dc1c44d	0.094612695
132	0x3e1e5330	0.15461421
133	0xbdc5d73f	-0.096601956
134	0x3e28d1af	0.16486238
135	0x3e47b1eb	0.19501464
136	0x3dcc80ef	0.0998553
137	0xbd87ec79	-0.066369005
138	0xbd021b68	-0.031764418
139	0x3d6146e6	0.054999255
140	0xbdcc9e5e	-0.09991144
141	0x3c349216	0.011021158
142	0x3cf1c22a	0.02951153
143	0x3de4be23	0.11169078
144	0xbe457f54	-0.19286853
145	0x3e700f8f	0.23443435
146	0xbb5e50ca	-0.0033922666
147	0x3dff80e5	0.124757566
148	0xbdefc229	-0.11706955
149	0x3d78675f	0.060645457
150	0x3d02a1c7	0.031892564
151	0xbdf68ae3	-0.12038209
152	0xbdc9d7c9	-0.09855611
153	0x3e186e1a	0.1488575
154	0x3de15c71	0.1100396
155	0x3e1d59b4	0.1536625
156	0x3e148825	0.1450506
157	0xbddce82a	-0.10786469
158	0x3d3a8851	0.045540158
159	0x3e2a07f1	0.16604592
160	0xbde19531	-0.11014784
161	0xbdccd968	-0.100024045
162	0x3e29bcf0	0.1657598
163	0x3cfc0376	0.030763369
164	0x3dbe1f2f	0.092832915
165	0xbdc61d7c	-0.096735924
166	0x3c0f3246	0.008740013
167	0xbe21e0eb	-0.15808456
168	0x3e15e9f6	0.1464003
169	0x3d1ce5e1	0.038305167
170	0xbd6dd4fd	-0.05806445
171	0xbe4dd504	-0.2010079
172	0x3d8774c6	0.0661407
173	0x3d8f03d8	0.06983155
174	0xbe012865	-0.12613066
175	0x3d7f37f2	0.062309213
176	0x3dea5b8d	0.11443243
177	0xbcb8271a	-0.022479583
178	0xbde39d5a	-0.11113997
179	0x3e346246	0.17615613
180	0x3b2c5bae	0.0026299763
181	0x3e132284	0.14368635
182	0xbd8e01f4	-0.06933966
183	0x38c8c532	9.573474e-05
184	0x3d6c5b75	0.057704408
185	0x3d0bba42	0.034113176
186	0x3e152ddb	0.14568274
187	0x3d855d09	0.06511886
188	0x3e4e9127	0.20172559
189	0x3c9f338e	0.019433763
190	0xbdc11f5e	-0.09429811
191	0xbd31c9e1	-0.043405417
192	0x3b245702	0.0025076275
193	0xbb115b72	-0.002217975
194	0xbdb67a52	-0.089100495
195	0x3e3a8ac7	0.18217002
196	0x3db221b9	0.08697838
197	0xbe612143	-0.21985345
198	0x3d2e6433	0.042576026
199	0x3cfa7ea2	0.030577961
200	0x3d868b3c	0.065695256
201	0xbda5d980	-0.080981255
202	0x3d63095e	0.055428855
203	0x3e526825	0.2054754
204	0x3e1b4d65	0.15166242
205	0x3e63a3ec	0.222305
206	0x3d18823e	0.037233584
207	0x3dfc4d67	0.12319451
208	0x3d9265a6	0.07148294
209	0x3e10ad84	0.14128691
210	0x3e5c73c2	0.21528533
211	0x3e137729	0.14400925
212	0x3e028592	0.12746266
213	0xbc3d7423	-0.011563334
214	0x3e377d65	0.17918928
215	0x3af0f8e8	0.0018384727
216	0x3e043c7d	0.129137
217	0x3d4a800b	0.049438518
218	0x3d5fc1f7	0.05462834
219	0xbd264c32	-0.04060001
220	0x3e6d7eba	0.23192874
221	0x3bcb47d1	0.0062036295
222	0xbe171af3	-0.14756374
223	0xbe0736ad	-0.13204451
224	0x3e0247e2	0.12722734
225	0x3c88cd57	0.016699476
226	0x3d53d0f7	0.051712956
227	0x3c234e12	0.009967344
228	0xbdfaf5c8	-0.1225391
229	0xba6e7bad	-0.00090974086
230	0xbe0cce2c	-0.13750523
231	0xbd4736ac	-0.048636124
232	0xbe1136d5	-0.14181073
233	0xbc2fa37a	-0.010720128
234	0xbe0b7c79	-0.13621701
235	0x3e20cbf3	0.157028
236	0xbdbbdbcc	-0.09172782
237	0x3dfe6c75	0.1242303
238	0xbe2ad177	-0.16681467
239	0xbe1cc1c6	-0.15308294
240	0xbe122072	-0.1427019
241	0x3d0fba42	0.03508974
242	0xbd9c9ffa	-0.076477006
243	0x3d570a28	0.05249992
244	0xbd101b28	-0.03518215
245	0xbc979ab9	-0.018506395
246	0xbc524104	-0.012832884
247	0xbd6ec704	-0.058295265
248	0x3e1b9c15	0.1519626
249	0xbdc71ac2	-0.097219005
250	0xbe080380	-0.13282585
251	0xbe169753	-0.14706163
252	0xbe2b1006	-0.16705331
253	0x3e109380	0.14118767
254	0xbe1ad983	-0.15122037
255	0xbe55590b	-0.20834748

fc1.bias f4 [300]
0	0xbd830c62	-0.06398846
1	0x3d1d00e2	0.03833092
2	0xbd8d1281	-0.06888295
3	0x3db4c995	0.08827511
4	0x3e012e13	0.12615232
5	0x3e4152b1	0.188792
6	0xbe03e900	-0.12881851
7	0x3e3663fe	0.17811581
8	0xbe2b0048	-0.16699326
9	0x3dae06df	0.08497404
10	0x3e454e26	0.19268093
11	0x3e3ebd30	0.18626857
12	0xbd3fa6c3	-0.046789896
13	0x3dba7b49	0.09105546
14	0x3d73021d	0.059328187
15	0x3e81e62b	0.25370917
16	0xbdbb2f30	-0.0913986
17	0x3d678aa9	0.05652872
18	0xbe05274f	-0.13003276
19	0x3e4e2177	0.20129953
20	0xbd9bde1b	-0.07610723
21	0x3afd734e	0.0019336732
22	0x3de5e0b5	0.112245
23	0xbdb85d46	-0.090021655
24	0xbcc04c9a	-0.023474026
25	0x3dcccba3	0.09999778
26	0xbdf436ce	-0.11924516
27	0xbe28168f	-0.16414855
28	0x3d9b003a	0.075684026
29	0x3e283fe0	0.16430616
30	0x3d0e63bc	0.034763083
31	0x3c8ca618	0.017169043
32	0x3e2000b9	0.15625276
33	0xbdf8df15	-0.121519245
34	0x3dc061f5	0.09393684
35	0xbd82f2fa	-0.06394
36	0x3d4d7b5c	0.050166473
37	0x3d833ea8	0.06408435
38	0xbdddb581	-0.10825635
39	0x3e07238a	0.13197151
40	0x3cc91c1b	0.024549535
41	0x3dc7918a	0.09744556
42	0xbe3d2885	-0.18472488
43	0xbdd37e6e	-0.10326849
44	0x3e27162d	0.16317053
45	0x3e47fc68	0.19529879
46	0xbe228ede	-0.15874812
47	0x3bfafb2f	0.007659338
48	0x3dfd8e8f	0.123807065
49	0x3e262479	0.1622485
50	0xbdffedb7	-0.124965124
51	0x3e213a81	0.15744974
52	0xbe175818	-0.14779699
53	0xbe0f3122	-0.13983586
54	0xbcc63402	-0.024194721
55	0xbd9b55a7	-0.07584696
56	0x3cebec58	0.02879922
57	0x3dca7eaa	0.098874405
58	0x3beee42a	0.007290383
59	0x3e1d0163	0.1533256
60	0x3e1e7989	0.1547605
61	0xbcfe868b	-0.031070014
62	0xbd18abbc	-0.037273154
63	0xbe0a1f22	-0.13488439
64	0x3de8b227	0.11362105
65	0x3e3cd5b4	0.18440896
66	0xbe0b4353	-0.13599901
67	0x3d337259	0.043810222
68	0x3e5a516a	0.2132012
69	0x3e2d0355	0.16895802
70	0xbdadcdb5	-0.08486501
71	0xbdea5919	-0.11442775
72	0x3d14e68e	0.036352687
73	0xbd19b988	-0.037530452
74	0x3e3df819	0.18551673
75	0x3d1e08f4	0.038582757
76	0xbde174ec	-0.11008629
77	0x3dadd05b	0.08487006
78	0x3df27b88	0.11839968
79	0xbdd60d30	-0.10451734
80	0xbd709228	-0.058733135
81	0x3dc6ad11	0.097009785
82	0x3e32d3a8	0.17463553
83	0x3e3d6cea	0.18498579
84	0x3e26810d	0.16260166
85	0xbc2cf663	-0.01055679
86	0x3c4f6a2d	0.012659592
87	0xbd9191ad	-0.071078636
88	0x3d2b9eaf	0.04189938
89	0x3cdc8df5	0.02692316
90	0x3dafa96b	0.08577236
91	0xbd0be8e3	-0.034157645
92	0xbe4777b0	-0.19479251
93	0xbcbf57f1	-0.023357363
94	0xbe181626	-0.14852199
95	0xbe07584d	-0.13217278
96	0x3d2be900	0.041970253
97	0x3e1487d0	0.14504933
98	0x3e291adc	0.16514152
99	0x3e0a59ef	0.1351087
100	0xbddd9d28	-0.10820991
101	0x3e2656db	0.1624407
102	0x3e23e77c	0.16006273
103	0x3d89004b	0.06689509
104	0x3d6b1a93	0.05739839
105	0x3e1272b1	0.14301564
106	0xbe22150e	-0.15828344
107	0xbdf9d1f2	-0.12198247
108	0x3d9a7019	0.07540912
109	0x3d9f35b7	0.07773917
110	0xbdfb3f17	-0.12267893
111	0xbdd9f6ef	-0.10642802
112	0xbc696a92	-0.0142466
113	0xbab69d89	-0.0013932447
114	0xbd215239	-0.039385054
115	0xbcad1cb6	-0.021131855
116	0xbda3a48d	-0.0799037
117	0x3e5c1bd9	0.21494998
118	0xbc8fc7fc	-0.017551415
119	0xbe1ea2c3	-0.15491776
120	0xbd740cf7	-0.059582677
121	0xbdc4295f	-0.095782034
122	0x3df61202	0.120151535
123	0xbd3fd9d6	-0.046838604
124	0x3d673caa	0.056454338
125	0xbdbad167	-0.091219716
126	0x3e161aa6	0.14658603
127	0xbdc79b86	-0.097464606
128	0xbd5d1eb0	-0.053984344
129	0xbdb8d24e	-0.090244874
130	0x3dbb32a3	0.091405176
131	0x3d3a554a	0.045491494
132	0x3d37f465	0.044910807
133	0x3ddfa26e	0.10919653
134	0x3e50fd20	0.2040906
135	0x3e1daaff	0.15397261
136	0xbd984223	-0.074344896
137	0xbe18ff23	-0.14941077
138	0x3d8b9291	0.06815065
139	0xbd905af3	-0.07048597
140	0xbe40dfc3	-0.18835358
141	0x3dfb65ef	0.12275302
142	0x3dd44dcb	0.103664
143	0x3e655b92	0.22398213
144	0x3e0a949c	0.13533252
145	0x3dbb5635	0.09147302
146	0xbd62d6fe	-0.055380814
147	0x3d95c8fb	0.073137246
148	0x3dcb88f9	0.09938235
149	0x3e44e914	0.19229537
150	0xbdb1615a	-0.086611465
151	0xbe274ce1	-0.1633792
152	0xbd9df427	-0.07712584
153	0x3c87c531	0.01657352
154	0xbd4d42db	-0.050112586
155	0x3e1dfb04	0.15427786
156	0x3e0a2b07	0.13492976
157	0xbdca9e7e	-0.09893511
158	0x3d8d91e2	0.069125906
159	0x3d83556a	0.06412776
160	0xbd2e647b	-0.042576294
161	0xbd496740	-0.049170732
162	0x3dfe8ae8	0.12428838
163	0xbbb9734d	-0.005659497
164	0x3dba0ffb	0.09085079
165	0x3e15f1cc	0.1464302
166	0x3ba998ec	0.0051757004
167	0xbca8fb68	-0.020627692
168	0x3dc8d51e	0.09806274
169	0xbcf2d1d8	-0.029641077
170	0x3e33f298	0.17573011
171	0xbe03a945	-0.1285754
172	0x3c995b0f	0.018720178
173	0xbe001d52	-0.12511185
174	0xbe0b7ce8	-0.13621867
175	0xbdb117e3	-0.08647134
176	0xbe37cabd	-0.17948432
177	0x3d1fe587	0.039037254
178	0xbd90e199	-0.07074279
179	0x3daba0d6	0.083802864
180	0x3a287370	0.0006425893
181	0xbda08c8c	-0.07839307
182	0x3dc16d68	0.09444696
183	0x3e3c17e0	0.18368483
184	0xbb98bc0c	-0.004661089
185	0x3de9929a	0.11404915
186	0xbe1c40b6	-0.1525906
187	0x3e1fc6bc	0.15603155
188	0x3cb11982	0.021618608
189	0xbdb8f0bb	-0.09030291
190	0x3e4075d5	0.1879495
191	0x3da4521b	0.08023473
192	0xbdce4eb1	-0.10073603
193	0xbe086548	-0.13319886
194	0xbdf13a3a	-0.11778684
195	0x3d13bd0f	0.036068972
196	0x3e0aa97c	0.13541216
197	0x3d8a549e	0.06754421
198	0xbdcb7f70	-0.09936416
199	0x3e1fa1f3	0.15589122
200	0xbdd6373e	-0.10459755
201	0x3e4fd1c6	0.20294866
202	0xbdfb2e2f	-0.12264668
203	0x3df43cd4	0.119256645
204	0xbcd99d85	-0.026564369
205	0x3e2bc409	0.16774
206	0xbd65d902	-0.056115158
207	0xbd440ebf	-0.047865625
208	0x3d1e2e8c	0.03861861
209	0x3e3253c7	0.17414771
210	0x3bd11293	0.006380388
211	0xbd5d0440	-0.05395913
212	0x3dceb0ff	0.10092353
213	0xbe24ce0e	-0.16094229
214	0xbda5f8e9	-0.081041165
215	0x3d236864	0.039894477
216	0x3d60f94e	0.054925255
217	0x3dc833af	0.09775483
218	0xbe181081	-0.14850046
219	0x3d079012	0.03309638
220	0xbdc8fe16	-0.09814088
221	0xbce988f9	-0.028507696
222	0x3d16ce6a	0.036817946
223	0xbe224603	-0.1584702
224	0xbe3a63dd	-0.18202157
225	0x3e19de2c	0.15026158
226	0x3dbf87ee	0.093520984
227	0xbe343d1c	-0.17601436
228	0x3d81ee3b	0.06344267
229	0x3d3d7a6a	0.04625932
230	0x3e308062	0.17236474
231	0xbde7748e	-0.11301528
232	0x3d20e400	0.039279938
233	0x3e09bece	0.13451692
234	0xbdff9ff7	-0.12481683
235	0xbd7762df	-0.060397025
236	0x3db3d598	0.08780974
237	0xbdbfabc1	-0.09358931
238	0x3cc70264	0.024293132
239	0x3e0fffc6	0.14062414
240	0xbe0814f0	-0.13289237
241	0x3d49f0de	0.049301974
242	0x3d1a554f	0.037679013
243	0xbd06dd44	-0.03292586
244	0x3e0a88a4	0.13528687
245	0x3e1d087f	0.15335272
246	0x3e186255	0.1488126
247	0xbe04e092	-0.12976292
248	0xbe3b8cdb	-0.18315451
249	0x3e049481	0.12947275
250	0xbe1a98a6	-0.15097293
251	0xbd6b4048	-0.05743435
252	0x3dcd1404	0.10013583
253	0x3cedb6de	0.029017862
254	0x3dbaa934	0.09114304
255	0xbe22c28e	-0.15894529

fc2.weight f4 [600, 300]
0	0x3d1c2c53	0.03812821
1	0x3c993514	0.018702067
2	0xbdb5b760	-0.08872867
3	0x3ddf88ab	0.10914739
4	0xbd2ad0a6	-0.04170289
5	0x3d6e5289	0.05818418
6	0xbc98f51c	-0.018671565
7	0x3c9da2b6	0.019242626
8	0xbd83a445	-0.06427816
9	0x3d8f9cc6	0.07012324
10	0x3d678fbf	0.05653357
11	0x3d5a1e98	0.053251833
12	0xbd0b8882	-0.03406573
13	0x3d2cb005	0.042160053
14	0xbe24e980	-0.16104698
15	0x3d820457	0.06348484
16	0x3d196206	0.037446998
17	0x3cb7bd25	0.022429058
18	0x3d57f9d7	0.0527285
19	0x3cfdf964	0.031002708
20	0xbd918962	-0.07106282
21	0x3d393328	0.045214802
22	0xbd71083f	-0.058845755
23	0x3b7c7adf	0.0038525385
24	0x3cabf1bf	0.020989297
25	0xbda1e567	-0.07905083
26	0xbce012de	-0.027352747
27	0xbc537720	-0.01290682
28	0xbdb2ecef	-0.08736598
29	0x3d106bce	0.03525906
30	0x3c2223fe	0.0098962765
31	0x3da3b32c	0.07993159
32	0xbda91dcb	-0.08257636
33	0x3c5c98a2	0.013464125
34	0xbd41ce1d	-0.047315706
35	0xbda08575	-0.07837955
36	0x3dac89f7	0.08424752
37	0xbcb9cd6b	-0.022680959
38	0x3d224977	0.039620843
39	0xbb1c0c76	-0.0023811138
40	0xbe05f580	-0.13081932
41	0xbbc31596	-0.005953501
42	0xbd0ed2f2	-0.034869142
43	0x3bb5033f	0.0055240686
44	0xbbca0725	-0.0061654025
45	0xbd8f2fcb	-0.06991538
46	0x3d171655	0.03688653
47	0x3cdbdb4e	0.026837971
48	0x3d462718	0.048377126
49	0x3dc89c00	0.0979538
50	0xbc5febf5	-0.013667096
51	0xbda30e80	-0.0796175
52	0x3ccb59d8	0.024823114
53	0x3d1a9432	0.037738986
54	0x3d00e9b9	0.031472895
55	0x3ddd1b7d	0.107962586
56	0xbd8c2dd3	-0.06844678
57	0x3db22a4e	0.08699475
58	0x3d93fb9b	0.07225724
59	0x3d7cb690	0.061697543
60	0x3b7f5e2a	0.0038966038
61	0x3b11538b	0.002217504
62	0x3b5ddd53	0.0033853843
63	0xbd4df9cd	-0.050287057
64	0x38d2a0e7	0.00010043551
65	0x3daefd62	0.08544423
66	0xbd0cc372	-0.03436608
67	0x3badb185	0.005300703
68	0xba525744	-0.0008023868
69	0xbd2c44a0	-0.042057633
70	0xbd7cdf70	-0.061736524
71	0xbd492002	-0.04910279
72	0x3b978df5	0.004625077
73	0xbd1392f3	-0.036028814
74	0x3d230000	0.039794922
75	0x3cb1a55a	0.021685291
76	0xbda6a185	-0.08136276
77	0xbc14ddee	-0.009086115
78	0x3d2dbde3	0.04241742
79	0x3bde32bc	0.0067809504
80	0xbc738019	-0.014862084
81	0x3c623298	0.013806008
82	0x3c7237b0	0.014783785
83	0x3ce13b83	0.027494198
84	0x3c8dd041	0.017311217
85	0xbca84d4f	-0.020544676
86	0x3b72b58a	0.0037034475
87	0xbd981a5a	-0.07426901
88	0x3d932dcf	0.07186472
89	0xbda16e32	-0.07882346
90	0x3c5bad99	0.013408088
91	0xbc32cd6e	-0.010913236
92	0x3c05a513	0.008157033
93	0xbcb32675	-0.021868924
94	0xbbef04b8	-0.0072942637
95	0xbbc423ce	-0.0059857136
96	0xbd28173d	-0.041037787
97	0xbdb09f66	-0.08624153
98	0x3d87058e	0.06592856
99	0x3a5180f0	0.00079919305
100	0xbbbfb96f	-0.005850963
101	0xbddba3c2	-0.10724594
102	0x3da36751	0.079786904
103	0xbc0e996c	-0.008703571
104	0x3d3e96bd	0.046530474
105	0xbcc09499	-0.023508357
106	0x3d0b138d	0.033954192
107	0x3d4face6	0.050702
108	0xbc451eb3	-0.012031245
109	0x3d844523	0.06458499
110	0x3c21d9e9	0.009878614
111	0x3d8387fe	0.06422423
112	0x3d922c45	0.0713735
113	0x3a95651a	0.0011397928
114	0xbc483c68	-0.012221433
115	0xbd5fccec	-0.054638788
116	0x3ca5f00e	0.020256069
117	0x3d85d372	0.065344706
118	0x3d3afd86	0.045651935
119	0xbcceb69b	-0.025233557
120	0xbcedeea6	-0.02904446
121	0x3d558fc4	0.05213906
122	0xbbcde2a9	-0.0062831235
123	0xbd007cd9	-0.031369064
124	0xbe0677c6	-0.13131627
125	0x3dae722c	0.0851787
126	0x3d4619b4	0.048364356
127	0x3d8134a8	0.063088715
128	0x3cdfa174	0.027298667
129	0x3d369046	0.044571184
130	0xbe11caff	-0.14237593
131	0x3d15183d	0.03640007
132	0xbd2ecec3	-0.042677652
133	0x3d7f3369	0.062304888
134	0xbb3a2a27	-0.0028406472
135	0xbd30e42c	-0.04318635
136	0xbd25d84e	-0.040489487
137	0x3c8d7d1a	0.017271567
138	0xbb5c67d1	-0.0033631215
139	0x3dad7b26	0.08470754
140	0x3d882859	0.06648321
141	0x3ba160a8	0.0049248524
142	0x3d4937d6	0.049125515
143	0xbd631084	-0.055435672
144	0x3d71b91c	0.059014425
145	0x3cc3878e	0.023868348
146	0x3be5e297	0.007015537
147	0x3dbb2c8b	0.09139355
148	0xbc304124	-0.010757718
149	0xbd40dc16	-0.04708489
150	0xbb93d317	-0.004511248
151	0x3bbbdd39	0.005733159
152	0xbd38f282	-0.04515315
153	0x3c4522c6	0.012032216
154	0x3d9c78ae	0.07640205
155	0x3caf2d82	0.021384005
156	0x3d1f6656	0.038915955
157	0x3d97d9a9	0.07414562
158	0x3d3c63de	0.04599368
159	0xbc66b194	-0.014080424
160	0x3cceb531	0.025232883
161	0x3bec97c4	0.0072202403
162	0xbd13e097	-0.036102857
163	0xbd552a35	-0.052042205
164	0xbc63f074	-0.013912309
165	0xbb56e762	-0.0032791723
166	0x3d8db512	0.06919302
167	0xbd33bcd9	-0.04388127
168	0x3d2fb57c	0.042897686
169	0xbd204dff	-0.039136883
170	0x3d9d4d7f	0.07680797
171	0xbd770cc7	-0.06031492
172	0x3d31f05c	0.043442115
173	0xbca45af8	-0.020062909
174	0xbc336896	-0.010950228
175	0x3dfff57d	0.12497995
176	0x3cc3e128	0.023911074
177	0xbb0f0770	-0.0021824501
178	0xbce87d91	-0.028380187
179	0xbc86bc9b	-0.016447356
180	0xbd0aabe4	-0.033855334
181	0x3d41d3ab	0.047321003
182	0x3d2ba8ae	0.041908912
183	0xbd64a8b4	-0.05582495
184	0x3cf9d04d	0.030494833
185	0xbe0c4893	-0.1369956
186	0x3d48c319	0.049014185
187	0xbc1b97bb	-0.009496625
188	0xbe0006be	-0.12502572
189	0x3c018fd0	0.007907823
190	0x3d6947e0	0.05695331
191	0x3d7518b8	0.059838027
192	0xbd9fc39d	-0.07800982
193	0x3adf8692	0.0017053655
194	0xbc9028ad	-0.01759752
195	0x3d4a3dbb	0.049375277
196	0x3c9d6248	0.019211903
197	0xbd91a6bd	-0.07111881
198	0x3cd0196a	0.025402743
199	0xbd8aaa6d	-0.067707874
200	0xbcbf7d76	-0.023375254
201	0xbd7dd78f	-0.06197315
202	0x3d046a47	0.032327916
203	0x3d683ce3	0.05669869
204	0xbda701e8	-0.081546605
205	0xbccf1b42	-0.025281552
206	0xbbc8a501	-0.0061231856
207	0xbcc0f57b	-0.023554554
208	0xbd582d82	-0.052777775
209	0x3cfd1f9b	0.03089886
210	0xbc90e217	-0.017685933
211	0x3d7ab8d3	0.06121142
212	0xbc52fa6b	-0.012877087
213	0xbd06018f	-0.03271633
214	0x3d14a69d	0.036291707
215	0xbbb27b74	-0.0054468457
216	0x39fa2d61	0.00047717526
217	0xbc25ccbd	-0.010119614
218	0xbda036a2	-0.078229204
219	0x3defd665	0.117108144
220	0x3d90dd1e	0.07073425
221	0xbd257147	-0.040391233
222	0xbe04df36	-0.12975773
223	0x3d32ce68	0.043653876
224	0x3d21c7c5	0.039497156
225	0xbd3bcdf3	-0.045850705
226	0xbb606150	-0.003423769
227	0xbd4c889d	-0.049934972
228	0xbcbea8f8	-0.02327393
229	0x3cad39b8	0.021145687
230	0xbd015740	-0.03157735
231	0x3d20d988	0.039269954
232	0x3cd55402	0.026041035
233	0x3bdaa562	0.006672547
234	0x3ca1933e	0.01972353
235	0xbca60abb	-0.020268789
236	0x3dae0fe4	0.08499125
237	0xbd07df2d	-0.03317182
238	0x3cc5bfb2	0.024139259
239	0x3bd0a363	0.0063671335
240	0x3a60afdd	0.00085711275
241	0xbd6f9c21	-0.058498506
242	0xbde50907	-0.111833625
243	0x3d170cd7	0.03687748
244	0xbdfcf5f7	-0.123516016
245	0xbc02eb75	-0.007990708
246	0xbba99ef9	-0.0051764217
247	0x3a76da4f	0.0009416686
248	0x3cf1226e	0.029435363
249	0xbc699e84	-0.0142589845
250	0x3cf85381	0.030313255
251	0x3c1e78a9	0.009672322
252	0xbc5d304c	-0.013500284
253	0xbe0db826	-0.13839778
254	0xbd0f0b88	-0.034923106
255	0xbc5177a5	-0.012784873

fc2.bias f4 [600]
0	0x3cb79885	0.022411594
1	0x3ba6b367	0.0050873044
2	0xbd484b8e	-0.04890018
3	0xbd7fd98d	-0.062463332
4	0x3d0b499f	0.034005757
5	0x3d3f3764	0.046683684
6	0x3d02c5a7	0.031926777
7	0xbd5b03ef	-0.05347055
8	0xbbf9fd49	-0.007629071
9	0x3c3cf2b2	0.011532472
10	0xbd3b1576	-0.045674764
11	0x3cb4c9a3	0.022068804
12	0xbbb39eae	-0.0054815626
13	0xbd4b8564	-0.049687758
14	0xbd11ccb9	-0.03559563
15	0x3b8d6eeb	0.004316201
16	0x3d01acbe	0.03165888
17	0x3d16e22c	0.036836788
18	0xbcb9ce95	-0.022681514
19	0x3aa12f5e	0.0012297442
20	0xbd072234	-0.032991603
21	0xbad2cf81	-0.001608357
22	0xbaf9efff	-0.0019068717
23	0x3cf49358	0.029855415
24	0x3cdac8ec	0.026707135
25	0xbcb74e13	-0.022376096
26	0x3d3643b4	0.04449816
27	0x3d8c7b63	0.06859472
28	0xbd05656c	-0.032567427
29	0xbd5e8df2	-0.05433459
30	0x3d53bfa5	0.05169644
31	0x3d065f48	0.03280571
32	0x3c8e38a5	0.017360995
33	0xbcd74891	-0.02627972
34	0x3b9620ed	0.004581562
35	0x3d258431	0.04040927
36	0xbd88ae53	-0.06673875
37	0x3da3e9dc	0.080035895
38	0xbd2b0320	-0.041751027
39	0x3ca166b7	0.019702299
40	0x3d4a488f	0.049385604
41	0x3cadbdc5	0.021208653
42	0xbd236e8f	-0.03990036
43	0xbb6530cd	-0.0034971714
44	0x3d618584	0.05505897
45	0xbd01dd93	-0.03170545
46	0xbd1a0260	-0.03759992
47	0x39bec95c	0.00036389648
48	0x3ca0509a	0.019569684
49	0xbcb1003d	-0.021606559
50	0xbcf62223	-0.030045575
51	0xbccdc527	-0.025118424
52	0x3bc4994b	0.0059997193
53	0x3cf2e739	0.029651271
54	0x3ad1cd2e	0.0016006583
55	0xbccc357d	-0.024927849
56	0x3d34e6aa	0.04416529
57	0x3d6b447a	0.05743835
58	0xbc5e9c04	-0.013587002
59	0x3d37dcea	0.044888414
60	0xbd3cab2c	-0.04606168
61	0xbd514d86	-0.051099323
62	0x3ce07bb7	0.027402742
63	0x3b7c6f20	0.0038518384
64	0x3d2ca21e	0.042146794
65	0x3d33d06e	0.043899946
66	0x3d40b514	0.04704769
67	0x3d812725	0.06306294
68	0xbcbef860	-0.023311794
69	0x3d0aaa9f	0.033854123
70	0xbcfc3163	-0.030785268
71	0x3ce27484	0.02764345
72	0xbd51b2a3	-0.051195752
73	0xbbea2c4b	-0.0071463934
74	0x3cf04674	0.02933047
75	0xbd753681	-0.059866432
76	0xbcf20d43	-0.02954734
77	0x3c665b05	0.014059787
78	0xbd3cfcc5	-0.046139497
79	0x3bb6d5b9	0.005579677
80	0x3d6c546a	0.05769769
81	0xbc704682	-0.014665248
82	0xbd08b109	-0.03337196
83	0xbc2131b4	-0.00983851
84	0xbd0e5aa4	-0.03475441
85	0xbd3b4672	-0.04572148
86	0x3cfd33d2	0.030908499
87	0xbba2524a	-0.0049536573
88	0xbcb4129b	-0.021981528
89	0x3c69aa01	0.0142617235
90	0x3d633320	0.05546868
91	0xbd0967f7	-0.033546414
92	0xbcfd1c95	-0.030897418
93	0x3d977502	0.07395364
94	0xbc7304df	-0.014832704
95	0x3d50ef3a	0.051009394
96	0xbd871e31	-0.065975554
97	0x3aae4e17	0.0013298419
98	0xbd623da4	-0.055234566
99	0x3d5b6ee8	0.053572565
100	0x3e0f2d85	0.13982208
101	0xbc51243c	-0.012764987
102	0x3d47e966	0.04880657
103	0xbb2ebdce	-0.0026663425
104	0x3ca4b154	0.020104088
105	0x3d08f937	0.033440795
106	0xbd3ab435	-0.045582015
107	0x3ca04f2e	0.019569006
108	0x3dabc42d	0.08387027
109	0x3cd8c76f	0.026462285
110	0x3d7a2e5a	0.06107936
111	0xbbcf4fc7	-0.006326649
112	0xbd2b7a44	-0.04186465
113	0xbc05ac09	-0.008158692
114	0x3d67ef8b	0.05662493
115	0x3d542a4c	0.05179815
116	0x3cef8634	0.029238798
117	0x3cb100c0	0.021606803
118	0xbd06562e	-0.03279703
119	0x3c8f5e66	0.017501067
120	0x3bbed306	0.005823496
121	0x3d23a089	0.03994802
122	0xbc25e82e	-0.010126157
123	0x3ce3dd5e	0.027815517
124	0x3c657d79	0.014006966
125	0xbd3aabc4	-0.045573965
126	0xbc3f1d0c	-0.01166464
127	0x3b23a9f0	0.0024973117
128	0xbcb691ac	-0.022286259
129	0xbd3a8323	-0.045535218
130	0x3c1aa2b6	0.009438207
131	0x3cf176ad	0.029475534
132	0xbd290f7b	-0.04127453
133	0xbd4dbb9d	-0.05022775
134	0x3d5eb163	0.054368388
135	0xbcc83e45	-0.024443755
136	0xbd33c66a	-0.043890394
137	0x3d082482	0.03323794
138	0x3d04ea80	0.0324502
139	0xbb5e54e2	-0.0033925106
140	0xbc874e19	-0.016516732
141	0x3b70cb6a	0.0036742338
142	0x3d8084fb	0.06275364
143	0x3cc62828	0.02418907
144	0x3d0772d9	0.03306851
145	0xbd4c3dc1	-0.04986358
146	0x3d2c59f5	0.042077977
147	0x3ccbd41f	0.02488142
148	0xbc878b28	-0.016545847
149	0xbd2f0662	-0.042730696
150	0xbcb4feab	-0.022094091
151	0x3c01e97b	0.007929201
152	0x3c1c4383	0.00953758
153	0x3ce5a2ed	0.02803179
154	0xbcaccd78	-0.021094069
155	0xbc91c988	-0.017796293
156	0x3c0bfb3a	0.008543784
157	0xbd5b57da	-0.05355058
158	0x3c390290	0.011292115
159	0xbd047f8d	-0.032348204
160	0x3d247b29	0.040156517
161	0xbd54e772	-0.051978536
162	0x3d14d42c	0.036335155
163	0x3c6496d2	0.013951974
164	0x3cc2bd5c	0.023771934
165	0x3d1649f0	0.036691606
166	0xbd100c73	-0.035168123
167	0x3cf91ea6	0.030410122
168	0xbccb9057	-0.0248491
169	0x3d7d4e5f	0.06184232
170	0xbd1dc31a	-0.03851614
171	0x3cf1a8ee	0.029499497
172	0x3dd209f9	0.102558084
173	0xbd0d5585	-0.034505386
174	0x3d14fe78	0.036375493
175	0x3d409f8f	0.047027167
176	0x3bdb0132	0.006683492
177	0xbd0ebae4	-0.0348462
178	0xbd4523c9	-0.04812983
179	0x3c4696c2	0.012120904
180	0x3c996845	0.018726477
181	0x3b7f5cdf	0.0038965268
182	0x3c9925e0	0.018694818
183	0xbd138622	-0.03601659
184	0x3d2fa3fd	0.042881
185	0x3c8083d5	0.015687862
186	0xbd0b9b39	-0.03408358
187	0x3d72c740	0.05927205
188	0x3d67fd80	0.05663824
189	0x3cbc4698	0.02298288
190	0x3d4b97f2	0.049705453
191	0xbd13de46	-0.03610065
192	0xbd00d890	-0.03145653
193	0x3d15b0ba	0.036545493
194	0xbb999db5	-0.0046879896
195	0xbd58a3d2	-0.052890606
196	0x3d8c5e9f	0.06853985
197	0xbd27c310	-0.04095751
198	0xbcca3175	-0.024681786
199	0xbcfb25b7	-0.030657632
200	0x3b183cc7	0.0023229585
201	0xbc874ea2	-0.016516987
202	0x3c562fe0	0.013072938
203	0xbd5f480c	-0.05451207
204	0xbcad0d05	-0.021124372
205	0x3d39d9d3	0.04537375
206	0xbcc43923	-0.023953026
207	0xbd04e748	-0.03244713
208	0x3d5b629e	0.053560846
209	0x3d1915d2	0.037374325
210	0xbd65d1a6	-0.05610814
211	0xbc273a9f	-0.010206847
212	0xbd2f137e	-0.0427432
213	0x3cdb677f	0.02678275
214	0x3d2edfae	0.042693786
215	0x3d4275fe	0.047475807
216	0xbc90eb32	-0.017690275
217	0x3c6d88db	0.014497961
218	0xbc2e8a5a	-0.010653103
219	0x3bc78a5c	0.006089492
220	0x3cf96014	0.030441321
221	0xbd107461	-0.035267238
222	0xbc0bba40	-0.008528292
223	0x3ccb505e	0.024818595
224	0x3c9df904	0.019283779
225	0x3d10cdf1	0.03535265
226	0xbd0e003b	-0.03466819
227	0x3c0c5133	0.008564281
228	0xbcc095fa	-0.023509014
229	0xbd27675d	-0.04087006
230	0x3d474298	0.048647493
231	0xbd4e15a1	-0.050313596
232	0x3cbfcf00	0.023414135
233	0x3d6c7def	0.057737287
234	0xbca4bcf1	-0.020109626
235	0xbc9ad233	-0.018899059
236	0x3c4732a2	0.012158068
237	0xbc953cfb	-0.018217554
238	0xbba9e071	-0.005184226
239	0xbc308831	-0.010774658
240	0xbca7a7bb	-0.020465722
241	0x3cd31339	0.025766002
242	0x3da61933	0.08110275
243	0xbd80b395	-0.062842526
244	0xbd006a82	-0.031351574
245	0x3ce8ba4f	0.028409151
246	0xbd2aa406	-0.04166033
247	0xbc8b720b	-0.017022153
248	0xbc8535de	-0.016261037
249	0xbc839e5e	-0.016066726
250	0x3bf2fda0	0.0074154884
251	0x3d4f3fc6	0.05059793
252	0x3d5f0f4f	0.05445796
253	0xbc2a7eb5	-0.010406186
254	0x3d2c8e31	0.04212779
255	0x3cf6f3d5	0.030145565

mu.weight f4 [3, 600]
0	0xbc9dce1b	-0.019263318
1	0xbb98284b	-0.004643475
2	0xbc3fef5e	-0.011714784
3	0x3d05f998	0.032708734
4	0x3c9204e8	0.017824605
5	0x3dba5854	0.090988785
6	0x3e18a3e5	0.14906271
7	0xbbafab08	-0.0053609647
8	0x3c00496d	0.007830006
9	0xbc2a8251	-0.010407046
10	0xbb33e2f3	-0.0027448505
11	0x3de0f44b	0.10984095
12	0x3c3e7d3b	0.011626537
13	0xbdc9167e	-0.09818743
14	0xbb132b00	-0.002245605
15	0x3e249164	0.16071087
16	0xbc31984a	-0.010839531
17	0x3da8d990	0.08244622
18	0x3db03c5c	0.08605263
19	0x3da0ffb0	0.078612685
20	0x3b3fdd5d	0.002927623
21	0x3b8d82ca	0.00431857
22	0x3c0d3365	0.00861821
23	0x3d98bbdd	0.07457707
24	0x3ba33f42	0.004981906
25	0x3ceca97e	0.028889414
26	0x3dded827	0.108810715
27	0x3db89773	0.09013262
28	0x3d8dd3a1	0.06925131
29	0x3d45f97d	0.048333634
30	0x3ddef81c	0.10887167
31	0x3ccaad26	0.024740767
32	0xbc740d66	-0.014895773
33	0x3d81750c	0.06321153
34	0x3ddd570a	0.10807617
35	0x3c951f22	0.018203322
36	0x3d7e1966	0.06203594
37	0x3c421348	0.011845417
38	0x385645dd	5.108664e-05
39	0x3c1c449e	0.009537844
40	0x3cc2fa00	0.02380085
41	0x3e021b26	0.12705669
42	0xbda49f6a	-0.08038218
43	0x3e11934e	0.14216349
44	0x3db3f2a8	0.087865174
45	0x3deb499f	0.114886515
46	0xb9063818	-0.00012800132
47	0xbdbb845b	-0.09156104
48	0xbc95f249	-0.018304007
49	0x3d519b89	0.05117372
50	0x3cc8c71f	0.02450901
51	0xbdcfa4e1	-0.1013887
52	0xbc274fb1	-0.010211871
53	0xbbc6033a	-0.006042865
54	0xbd1f1b5f	-0.038844462
55	0x3cb8b4ec	0.022547208
56	0x3e123e92	0.14281681
57	0x3d14a915	0.03629406
58	0x3cd8c1a6	0.026459526
59	0x3e2ffa95	0.17185433
60	0xbdd74220	-0.10510659
61	0x3d9fc1b7	0.0780062
62	0x3e068faf	0.13140748
63	0xbdde4186	-0.10852341
64	0xba1a70cf	-0.00058914436
65	0x3dc075d7	0.09397476
66	0xbd7c79a9	-0.06163946
67	0x3d2bfbc8	0.041988164
68	0x3cccef5a	0.025016475
69	0x3e111853	0.14169435
70	0xbd8a2371	-0.06745041
71	0x3ca889da	0.020573545
72	0xbd61946a	-0.05507318
73	0xbc8d655c	-0.017260246
74	0xbddf107d	-0.10891817
75	0x3c809a18	0.015698478
76	0x3bd48cf0	0.0064865276
77	0x3cc90198	0.024536893
78	0xb830e0f0	-4.217116e-05
79	0x3c702bfb	0.014658923
80	0x3daaa385	0.0833197
81	0x3b82b3ea	0.0039887326
82	0x3c17b31a	0.00925901
83	0x3dd22e43	0.1026273
84	0xbdac6014	-0.08416763
85	0x3d2e18f5	0.04250427
86	0x3e25ea1f	0.16202591
87	0xbcb0b967	-0.021572782
88	0xbdcd5cdb	-0.100274764
89	0x3d4eea16	0.05051621
90	0x3d770fc4	0.06031777
91	0xbb2a566e	-0.0025991458
92	0x391bba8f	0.0001485145
93	0x3de874b3	0.113503836
94	0xbc99b14d	-0.018761301
95	0xbd979be0	-0.07402778
96	0x3d004e7c	0.03132485
97	0xbcc4a026	-0.024002146
98	0x38fd2193	0.00012070234
99	0x3e0abd31	0.13548733
100	0xbd3662c4	-0.044527784
101	0xbb15db85	-0.002286644
102	0x3d5e5ebb	0.05428956
103	0x39b6c3be	0.00034859584
104	0x3e03c809	0.12869276
105	0xbcb93f1f	-0.022613106
106	0xb9094b51	-0.00013093396
107	0xbd3d0fdf	-0.046157714
108	0x3d16a6e6	0.03678026
109	0xbd465b5d	-0.048426975
110	0x3d13e5a4	0.036107674
111	0x3a9e56b2	0.001208028
112	0xbd838970	-0.064226985
113	0xbcbd6f36	-0.023124319
114	0xbdb730ed	-0.08944879
115	0x3de00e9f	0.10940289
116	0xbcc68134	-0.02423153
117	0x3c9c6dc3	0.019095307
118	0xbdc53e8e	-0.09631072
119	0xbc07f13e	-0.008297263
120	0x3d64d6aa	0.055868782
121	0xbdde2b83	-0.10848143
122	0x3da85efa	0.0822124
123	0xbc3b7726	-0.011441981
124	0x3bc2a630	0.0059402213
125	0x3b0898f4	0.002084312
126	0x3dd7e440	0.10541582
127	0x3aec85c2	0.0018045234
128	0x3be4bb39	0.0069803265
129	0xbdc3e4fc	-0.0956516
130	0xbdd5e3e6	-0.10443859
131	0x3c8d1977	0.017224057
132	0xbda2c851	-0.079483636
133	0xbb96fdcf	-0.004607893
134	0xbc7d7639	-0.015470081
135	0xbdc5f2f0	-0.09665477
136	0x3be551c1	0.006998271
137	0xbc802594	-0.015642919
138	0x3d7dedef	0.06199449
139	0xbb48b772	-0.003062692
140	0xbc87151a	-0.016489554
141	0xbca4b96f	-0.020107953
142	0xbc72b549	-0.01481373
143	0xbcaa1891	-0.020763667
144	0x3845fb91	4.720275e-05
145	0xbdd70cb0	-0.10500467
146	0xbda67a8c	-0.08128843
147	0xbc81f6dd	-0.015864784
148	0xba81d478	-0.000990524
149	0xbdb2017c	-0.08691689
150	0xbc52b92c	-0.012861531
151	0x3df6cc20	0.120506525
152	0x3d6e93a6	0.058246277
153	0xbdb68b63	-0.08913305
154	0x3d00e0ea	0.031464495
155	0xbdc40ec6	-0.0957313
156	0x3dadf110	0.08493245
157	0x3d88793b	0.06663748
158	0x3cde1a3d	0.02711212
159	0xbbfeb17f	-0.007772624
160	0xbb0382e5	-0.0020067033
161	0x3a478711	0.0007611374
162	0xbcb62e37	-0.022238834
163	0x3d36e6d8	0.044653744
164	0xbded3d14	-0.11583915
165	0xbab45843	-0.0013759214
166	0x374673ac	1.1828652e-05
167	0xbc8f8121	-0.017517628
168	0xbda4214f	-0.080141656
169	0x3d3cabd6	0.046062313
170	0xbd2e0da2	-0.04249347
171	0x3dbd463a	0.0924191
172	0xbd225e60	-0.039640784
173	0x3da625ad	0.08112655
174	0xbd4f2877	-0.0505757
175	0x3e13a26b	0.14417426
176	0xbce7bf48	-0.028289452
177	0xbcd0076c	-0.025394164
178	0x3def2433	0.11676826
179	0x3de38265	0.11108855
180	0x3c4affc2	0.012390079
181	0x3cb1d6e8	0.02170892
182	0x3e0b1b2a	0.13584581
183	0xbabd9dd7	-0.0014466596
184	0x3c9e2441	0.019304397
185	0xbdbbfded	-0.09179292
186	0x3b6d19d4	0.0036178725
187	0xbcc1b82c	-0.02364739
188	0x3dc79f44	0.097471744
189	0xbc1155d4	-0.008870561
190	0x3db21284	0.08694938
191	0xb7be5774	-2.2690489e-05
192	0x3b192483	0.002336771
193	0x3d941fc6	0.07232623
194	0xbc2c5cbc	-0.0105201565
195	0x3c3364f7	0.010949365
196	0x3ad66670	0.0016357433
197	0xbd133465	-0.03593864
198	0x3e2f703f	0.17132662
199	0x3e14ee53	0.14544038
200	0x3e0c37f8	0.13693225
201	0xbb99dc96	-0.0046954853
202	0x3b8b5bcb	0.004252886
203	0xbb325c11	-0.002721552
204	0xbc4c457f	-0.012467741
205	0xbd881c8e	-0.066460714
206	0x3df93c3b	0.12169691
207	0xbd27d7df	-0.040977355
208	0x3db06f19	0.0861494
209	0x3db3b8ec	0.087755054
210	0xbaec01c2	-0.0018005895
211	0xbdbfa731	-0.09358061
212	0x3b9a7589	0.0047137183
213	0x3e081143	0.13287835
214	0x3d0579d2	0.03258688
215	0x3941ab26	0.00018469672
216	0xbd5b3387	-0.053515937
217	0x3b620305	0.0034486663
218	0xbdc35451	-0.095375665
219	0xbcfd273d	-0.0309025
220	0x3d2d60e4	0.04232873
221	0x3d743ce1	0.05962837
222	0x3cd3711b	0.025810769
223	0xbc305cf7	-0.010764352
224	0xbbc949fa	-0.006142852
225	0xbc3e66da	-0.011621201
226	0x3dae24e0	0.08503127
227	0x3bb55459	0.0055337367
228	0xbb912a70	-0.004430108
229	0xb89aa789	-7.374498e-05
230	0x3acf05ae	0.0015794539
231	0x3d3c5d0a	0.045987166
232	0xbc3b3265	-0.011425589
233	0x3c8a73e5	0.016900966
234	0x3bbea106	0.0058175353
235	0xbdac7da7	-0.08422404
236	0xb8ca65b8	-9.651057e-05
237	0xbdb9a3f2	-0.09064473
238	0xbb9fe740	-0.004879862
239	0xbd9e78af	-0.07737862
240	0x3c31c8bf	0.010851084
241	0x3b8c9563	0.004290269
242	0x3bf73cbd	0.0075450824
243	0x3c68f997	0.014219663
244	0x3c135dae	0.008994503
245	0x3ca7c7f4	0.020481087
246	0x3b3309f3	0.0027319163
247	0x3e0e7f78	0.13915813
248	0xbc34a0d5	-0.0110246735
249	0x3ba67510	0.005079873
250	0xb775495f	-1.4620221e-05
251	0xbb88f862	-0.00418
252	0x3d03982f	0.032127555
253	0xbdd99b58	-0.106253326
254	0x3d9763ac	0.07392058
255	0xba365e0d	-0.00069567637

mu.bias f4 [3]
0	0xbc36c9b8	-0.011156492
1	0xbcaf2733	-0.021380996
2	0xbd2980ab	-0.041382473

log_std.weight f4 [3, 600]
0	0xbde34a17	-0.11098116
1	0xbdb3538b	-0.08756169
2	0xbd92dc17	-0.07170885
3	0xbba7f609	-0.005125765
4	0xbd97f541	-0.07419825
5	0xbd022b84	-0.03177978
6	0xbd613d3d	-0.054990042
7	0xbc00ee4e	-0.007869316
8	0xbb83ab17	-0.0040181982
9	0xb86240fc	-5.394312e-05
10	0x36f9a222	7.439653e-06
11	0xbd3a5933	-0.045495223
12	0xbd8065f8	-0.06269449
13	0xbd96802b	-0.07348665
14	0x3afe0f6e	0.001938326
15	0xbd6138d2	-0.05498583
16	0xbdcca5f4	-0.099925905
17	0xbd10396d	-0.035211015
18	0xbd5a3068	-0.05326882
19	0xbd007464	-0.031361
20	0x3903b824	0.00012561731
21	0x3bd665d6	0.0065429015
22	0xbdd2618b	-0.10272511
23	0xbd5abe62	-0.05340422
24	0xbda914ed	-0.082559444
25	0xbd92bff4	-0.071655184
26	0xbd3467ca	-0.044044293
27	0xbd88127e	-0.06644152
28	0xbd2c2437	-0.042026725
29	0xbc3f9818	-0.011693977
30	0xbd54109e	-0.05177366
31	0xbbdad5f2	-0.0066783363
32	0xbd96dfdc	-0.073669165
33	0xbd8e7339	-0.06955571
34	0xbe3fb399	-0.18720855
35	0xbe2b41d7	-0.16724335
36	0xbcf19248	-0.029488698
37	0xbdcaf7ca	-0.09910543
38	0x388a9368	6.607809e-05
39	0xb86805a3	-5.531836e-05
40	0xbd8b37bb	-0.06797739
41	0xbd8eb78a	-0.06968601
42	0xbdce5f80	-0.10076809
43	0xbd5409e5	-0.05176725
44	0xbd486d03	-0.048932087
45	0xbe415834	-0.18881303
46	0x3891d48f	6.953731e-05
47	0xbda50ac0	-0.08058691
48	0xbdb3f0d6	-0.0878617
49	0xbcca8f23	-0.024726456
50	0xbc78ebe9	-0.015192964
51	0xbda1cd2a	-0.0790046
52	0xbd2e17e2	-0.042503245
53	0xbdc6ad67	-0.097010426
54	0xbd38e846	-0.04514339
55	0x3b0fb833	0.002192986
56	0xbdbc7ba6	-0.092032716
57	0xbd968e93	-0.073514126
58	0xbab2cf1a	-0.0013642043
59	0xbd8ee9cb	-0.06978186
60	0xbd944470	-0.07239616
61	0xbd3defde	-0.046371333
62	0xbd9a8bc3	-0.07546189
63	0xbd8bef5b	-0.06832763
64	0xbd316a09	-0.043314014
65	0xbd031131	-0.031998817
66	0xbdaa86f8	-0.083265245
67	0xbd9b5659	-0.07584829
68	0xbaee92d8	-0.0018201722
69	0xbd5c5448	-0.053791314
70	0xbe2a306d	-0.16620035
71	0xbd963573	-0.073344134
72	0xbd974c37	-0.07387584
73	0xbdf09afd	-0.11748312
74	0xbdaa7516	-0.083231136
75	0xbc58103f	-0.013187467
76	0xbbba2410	-0.0056805685
77	0xbdac8c2f	-0.084251754
78	0x38de6d90	0.000106061925
79	0xbd8988c7	-0.06715541
80	0xbd226f09	-0.039656673
81	0xbd94c5ec	-0.07264313
82	0xbdabab88	-0.08382326
83	0xbd28c6c9	-0.0412052
84	0xbd97fee9	-0.07421667
85	0xbc6a568a	-0.014302859
86	0xbd199a15	-0.03750046
87	0x3b8cb0b0	0.0042935237
88	0xbdf7ea50	-0.121052384
89	0xbcd63df7	-0.026152594
90	0xbd7e73b1	-0.06212205
91	0xba682622	-0.000885578
92	0xb8e80d6f	-0.00011065124
93	0xbd354a6c	-0.044260427
94	0x3b8ad8e7	0.0042372826
95	0xbd4c2856	-0.049843155
96	0xbd0de468	-0.034641653
97	0xbe5e6cdd	-0.21721216
98	0xb78469d8	-1.5784914e-05
99	0xbe008df9	-0.12554158
100	0xbe8a89bb	-0.27058205
101	0xbb09094e	-0.0020910087
102	0xbd81d543	-0.063395046
103	0x3956be16	0.00020479443
104	0xbd459ed0	-0.04824716
105	0xbdb78c7f	-0.089623444
106	0xb8a63415	-7.925198e-05
107	0xbd3b1836	-0.045677386
108	0xbd94b443	-0.07260945
109	0xbd7ef6ca	-0.062247075
110	0xbd9b366e	-0.07578741
111	0x3a93c533	0.001127398
112	0xbd86fc52	-0.06591095
113	0xbdf1601d	-0.1178591
114	0xbd88ad60	-0.06673694
115	0xbd60846e	-0.054813795
116	0xbdb8ff34	-0.09033051
117	0xbd598700	-0.05310726
118	0xbdce180c	-0.1006318
119	0xbdad7f50	-0.084715486
120	0xbcb5b3a5	-0.022180388
121	0xbdf98352	-0.121832505
122	0xbd1c3c77	-0.0381436
123	0xbdc12845	-0.09431509
124	0xbdc4427d	-0.09582994
125	0xbda9e36a	-0.08295329
126	0xbd2b6ed2	-0.041853733
127	0xbd0b441e	-0.03400051
128	0xbcaee3f9	-0.02134894
129	0xbda8da16	-0.082447216
130	0xbd9ce8fe	-0.07661627
131	0xbdd65a7d	-0.10466478
132	0xbd9654c9	-0.0734039
133	0xbc9ef3cb	-0.019403359
134	0xbdf9d1dc	-0.121982306
135	0xbda2437f	-0.0792303
136	0xbdc3bb9f	-0.0955727
137	0xbdbb0d03	-0.09133341
138	0xbd2665a5	-0.04062428
139	0xbdba5fe8	-0.09100324
140	0xbdc81d83	-0.09771254
141	0xbdd20953	-0.10255685
142	0xbdc565a7	-0.09638529
143	0xbdb24c5e	-0.08705972
144	0xbdab8ad8	-0.08376092
145	0xbd984dae	-0.07436691
146	0xbd963f4f	-0.07336294
147	0xbde2fd4f	-0.11083471
148	0xbdd9ea86	-0.10640435
149	0xbd9609e8	-0.07326108
150	0xbdb3660e	-0.087597
151	0xbd4b0e5a	-0.049574234
152	0xbd374715	-0.044745523
153	0xbdaac64b	-0.08338603
154	0xbc9e9eab	-0.019362768
155	0xbde73574	-0.11289492
156	0xbd1b642f	-0.03793734
157	0xbd2fa8c7	-0.042885568
158	0xbbdf855f	-0.006821319
159	0xbbcd066f	-0.0062568705
160	0xbaa98577	-0.0012933452
161	0xba7d7bd9	-0.0009669639
162	0xbda563fa	-0.0807571
163	0xbd660106	-0.05615332
164	0xbdb2b2fc	-0.08725545
165	0xba29a19e	-0.0006470921
166	0x36b58208	5.409358e-06
167	0xbd92627e	-0.07147692
168	0xbd8d4333	-0.06897583
169	0xbd659be9	-0.05605689
170	0xbd909d9e	-0.07061313
171	0xbd08f345	-0.033435125
172	0xbe1d3c88	-0.15355122
173	0xbd50caa3	-0.0509745
174	0xbe06c238	-0.13160026
175	0xbd11ff04	-0.035643592
176	0xbdbf25b4	-0.09333363
177	0xbd3fe6d9	-0.046851013
178	0xbd8ce677	-0.06879895
179	0xbd216679	-0.039404366
180	0xbd28f75c	-0.041251525
181	0xbd8bbfcb	-0.06823691
182	0xbd05a7d3	-0.032630753
183	0x3b8e2665	0.004338073
184	0xbd4fcdba	-0.050733306
185	0xbd9c419a	-0.076297
186	0x3ad337af	0.0016114617
187	0xbe11a210	-0.14221978
188	0xbd9145e9	-0.070934124
189	0xbdea3ad0	-0.11436999
190	0xbd344383	-0.044009697
191	0xb8e5377b	-0.00010929905
192	0xbd422f1a	-0.0474082
193	0xbdac5eb0	-0.08416498
194	0xbd4d1330	-0.050067127
195	0x3b3c9854	0.0028777318
196	0xbdaeaf2b	-0.085295044
197	0xbd4c4eaf	-0.049879726
198	0xbd8b8132	-0.068117514
199	0xbe3b1e2e	-0.18273231
200	0xbd4b7ce5	-0.049679656
201	0x3bc80a9d	0.006104781
202	0x3b3e0127	0.0028992386
203	0xbad44cd8	-0.0016197218
204	0xbdb6bb77	-0.08922475
205	0xbe1a290a	-0.15054718
206	0xbda36280	-0.07977772
207	0xbda982cf	-0.08276903
208	0xbd5a4d28	-0.05329624
209	0xbd5a0aac	-0.053232834
210	0xbb04ceb5	-0.0020264809
211	0xbd9a700a	-0.07540901
212	0xbd7260bb	-0.05917428
213	0xbd5bfff5	-0.053710897
214	0xbe58c459	-0.2116865
215	0xb7c7fef9	-2.384138e-05
216	0xbd43d4d9	-0.04781041
217	0x3a06aa23	0.00051370467
218	0xbd98ca5f	-0.07460474
219	0x3bbbbc7f	0.0057292576
220	0xbc57c035	-0.013168384
221	0xbe852d88	-0.260113
222	0xbc97ca0e	-0.018528964
223	0xbdbfdbb1	-0.09368075
224	0xbd86f767	-0.06590157
225	0xbdbffe42	-0.09374668
226	0xbd2c026c	-0.041994497
227	0x3af2306a	0.0018477563
228	0xbe825245	-0.25453392
229	0x390d6776	0.0001348535
230	0xbd9741be	-0.07385586
231	0xbcbdb3c4	-0.023157008
232	0xbdb16f2a	-0.08663781
233	0xbd9899c1	-0.07451201
234	0xbdbc608c	-0.09198102
235	0xbdc62b29	-0.09676201
236	0xbdaa8e6f	-0.08327948
237	0xbdc01326	-0.09378652
238	0xbd9dde7d	-0.07708452
239	0xbda9ed25	-0.08297185
240	0xbdb737aa	-0.08946164
241	0xbe718494	-0.23585731
242	0xbdc93eef	-0.09826457
243	0x3ad1ef42	0.0016016739
244	0xbb9d3815	-0.0047979453
245	0xba225eee	-0.0006193955
246	0x3aedee29	0.0018152642
247	0xbe3cf4fd	-0.1845283
248	0xbd6e45a6	-0.05817189
249	0x3b2d8d38	0.0026481878
250	0xb7485d5d	-1.1942667e-05
251	0xbdac5928	-0.08415443
252	0xbd9f24dc	-0.07770702
253	0xbd8d99ac	-0.06914076
254	0xbd065444	-0.032795206
255	0xbdbf9199	-0.093539424

log_std.bias f4 [3]
0	0xbca53955	-0.02016894
1	0x3cf61140	0.030037522
2	0xbd17dd2b	-0.037076157
