PPO/criticmodel.pth (torch_old, 761843 bytes, 5 tensors)

fc1.weight f4 [300, 29]
00000000: e585 c13d 85b3 7f3e d4a3 be3e 72d4 e23e
00000010: bb25 b43e 3910 1dbd 0737 e33c d758 cabc
00000020: 7d15 94be 3987 24be ba91 0abe c331 8cbe
00000030: 93fc 9bbe 4828 a5bd 3a31 23be 1472 ccbe
00000040: 1ab7 ecbe b858 09bf 87e5 dcbe 5bc1 93be
00000050: 5a15 2bbf 8e12 99be 5ec4 463f ab94 2dbf
00000060: 2169 933e 8617 9ebe 0c40 a1bc 5428 00be
00000070: 8569 4e3e 96e7 67bd 6c95 e33d 7f5f 913e
00000080: 051e 9a3e 4826 a93e 0519 fdbd 9316 bfbe
00000090: 382f 3cbe 53a9 75be 448c 4abd 445d bbbe
000000a0: 6a04 bfbd 77ba 90be 113d 84bd 2c0b 66be
000000b0: 396c 55bd 7908 423e e67d b13e 5d97 e53e
000000c0: be22 e33d 1845 053f 2154 ac3e 9798 97bd
000000d0: 91ef 34bf 42fe d0be 64bc 0ebf 0aaf 61be
000000e0: e333 45be cd2d d2bd bbcd c6bc 3580 eabd
000000f0: 4a9d c93e 25e7 bb3e 6962 813e 8298 1abc
00000100: 0ebc f73d e973 183e 2c1d d43d 7503 8ebd
00000110: 14ed 94bc 803f 333e a219 413c b1af 2d3e
00000120: 6bb2 0ebe 1dcc 883e c032 813e 2d28 2d3e
00000130: a508 963e e7fb 24bf 423c 68be f18a 083e
00000140: bbca 063f 7243 4bbf bf82 5d3b 957b 31be
00000150: c365 973d 8ac2 81be 62e3 a93c ab72 923d
00000160: 4f4d 3d3e 1997 503e 36af 393e a179 d9bd
00000170: 0f32 b13d 99b3 293e 994d 063e ab78 133d
00000180: d445 ef3d 09db d93d d957 6f3d e243 15be
00000190: b91c 923d 4362 d33c 0859 09be 9e7a cb3d
000001a0: a526 863c 4012 743b 8e3f 3e3e 9f1c dcbd
000001b0: a5d0 983f c921 873e a345 bdbf 1456 183d
000001c0: 47da 53bd 5e99 553e 9eb4 5e3d 3694 b53e
000001d0: faf4 093f 7047 133e 00bc de3e 7bde 103f
000001e0: 7ced d93e e152 3b3e d823 353e de70 9b3d
000001f0: f6e6 0d3d 8765 f63d a72e 903d ef72 923d
00000200: a8a1 233d a178 0b3c 973f 9ebd 987b 273e
00000210: f85e 84be b419 96be 4540 c1be 6c60 26be
00000220: 2e01 34bd d698 1f3f 3dae ce3e 73d4 1bbf
00000230: 26df 303f 8338 edbe 4cc9 af3d 0118 f5be
00000240: 7cb1 35be 3a3e 66be e327 a73e 9490 5d3e
00000250: b76f 1f3e 67f9 133d 5f2c 3dbd 85a9 09be
00000260: 2b36 88bd 295f 043d 440b c8bd 78fa 163d
00000270: c97d abbd d4bb a9bd 7a3b ad3b 0510 81be
00000280: 013e dabd 844a e83c 7006 4d3e 7f6d 9a3e
00000290: dcbf ec3e 5130 d5be d5a1 c2be 9aa5 c93e
000002a0: 99ab 1cbf d8e5 8dbd 6218 eebd 1b0a 99bd
000002b0: 1080 38bd 0a66 803e 9f14 403b 8319 4dbe
000002c0: 4a3c 31bd 256b f8bd 74e0 c73d 5140 ad3d
000002d0: 859b 98bd 0f20 c73d 2bb7 4bbe 63bc 943d
000002e0: 4497 c3bd 11ae dc3b 494a 6fbd e2d9 e1bd
000002f0: 6284 d6bd 3426 383d b7c6 b1ba 580f 93bc
00000300: b676 39be aebb a0bd f557 c93c d047 c7bd
00000310: 5535 a9bc 403e 993d 3098 08be 6fc5 db3d
00000320: deff 10be 3433 04be 9569 853d 67ad 0cbe
00000330: f7b1 303d 523e 0dbe 6f1f ecbd 119c 5c3b
00000340: 17c1 3bbc 4796 883d 6a25 3ebd 6778 bd3a
00000350: 0391 6bbd cff1 83bc f0af 29bd 0a59 c63d
00000360: ad0e e63d 0465 ccbd f6a2 14be d3b3 b8bd
00000370: 4f84 a83d 8847 033e 94a5 d1bd 7ddb c23d
00000380: 753d 5f3f f992 0ebf 846d d2bf d9f8 e7bc
00000390: cfe1 d93d 00c7 813e c78a 1e3e 982f 48be
000003a0: 21b5 8fbf 749a 25be f054 27bf 5412 32bf
000003b0: 23af fabe 59fe e4bb c837 01be fd10 bdbd
000003c0: 8761 1bbd 273c 79be 1d8a 81be 33c3 dfbc
000003d0: 08ee 4dbe f4c7 823c 1f40 a13c 4598 a6be
000003e0: 31c3 bd3d 62be 59be 9121 253e d2ca 88bd
000003f0: f88f 0d3e c22c 003e 6d73 02bf 70ba a53d
0.094493665 0.24970825 0.37234366 0.44302708 0.35185036 -0.03834555 0.0277362 -0.024700565
-0.28922644 -0.16067208 -0.13532153 -0.27381715 -0.30466136 -0.08064324 -0.15936747 -0.39930785
-0.46233445 -0.53651 -0.43143865 -0.28858456 -0.66829455 -0.2989697 0.7764338 -0.67804974
0.28791144 -0.30877322 -0.01968386 -0.12515384 0.2015744 -0.056617342 0.11112484 0.2839317
0.30101028 0.3303702 -0.12358288 -0.3732191 -0.18377388 -0.23990373 -0.049450174 -0.36594594
-0.09327014 -0.2826726 -0.0645696 -0.22465199 -0.052105162 0.18948545 0.34666365 0.44842044
0.11090611 0.52058554 0.33657935 -0.07402151 -0.7067805 -0.40818983 -0.5575621 -0.22039428
-0.19258074 -0.10262642 -0.024268022 -0.11450235 0.39377815 0.36699787 0.25270393 -0.009435775
0.120964155 0.14887966 0.103571266 -0.06934253 -0.018179454 0.17504692 0.0117858965 0.16961552
-0.13935249 0.26718226 0.25234032 0.16909857 0.2930347 -0.6444687 -0.22679237 0.13334252
0.5265309 -0.7939979 0.0033799855 -0.17332299 0.073924564 -0.25343734 0.020738307 0.071507774
0.18486522 0.20370139 0.18133244 -0.10618902 0.08652126 0.16572417 0.13115539 0.03600375
0.116832405 0.10637481 0.058433387 -0.14576676 0.07134385 0.02580369 -0.13412869 0.09935497
0.016375849 0.0037242323 0.18578932 -0.107476465 1.1938673 0.26392964 -1.4786876 0.037191465
-0.051721837 0.20859286 0.05437147 0.35464638 0.5388943 0.1438272 0.43502808 0.5658948
0.42564 0.18293335 0.17689455 0.07589887 0.03464409 0.120310836 0.07040148 0.07150828
0.03994909 0.008512647 -0.077269726 0.16355741 -0.25853705 -0.29316485 -0.37744346 -0.1624772
-0.043946438 0.62342584 0.40367308 -0.60871047 0.690905 -0.46332178 0.08583316 -0.47869876
-0.17743486 -0.22484675 0.3264762 0.21637183 0.1556996 0.03612652 -0.046184894 -0.13443573
-0.06650957 0.032317314 -0.09767774 0.03685996 -0.08373601 -0.082877785 0.005286631 -0.25207534
-0.106563576 0.028355844 0.20021987 0.30161664 0.46240127 -0.41638425 -0.38014093 0.39384156
-0.6119934 -0.06928605 -0.116257444 -0.074726306 -0.045044005 0.2507785 0.0029309166 -0.20029263
-0.043270387 -0.12129811 0.09759608 0.08459533 -0.07451538 0.097229116 -0.19894092 0.072624944
-0.09550336 0.0067346175 -0.058420453 -0.11027886 -0.10474469 0.04495831 -0.001356325 -0.017951652
-0.18111691 -0.07848297 0.024578074 -0.09730494 -0.020655314 0.07482576 -0.13339305 0.10731017
-0.14160106 -0.12910157 0.06514279 -0.13738023 0.04313847 -0.13793305 -0.11529433 0.0033662359
-0.01145961 0.06669288 -0.0464224 0.0014455438 -0.05751134 -0.016106514 -0.041427553 0.096849516
0.11233268 -0.09980205 -0.1451529 -0.09018674 0.08228361 0.12820256 -0.1023666 0.0951452
0.8720315 -0.5569301 -1.6439672 -0.028316902 0.10638773 0.25347137 0.15482627 -0.19549406
-1.1227151 -0.161722 -0.6536398 -0.69559216 -0.48961744 -0.0069883284 -0.12618935 -0.09231756
-0.037934806 -0.24339353 -0.25300685 -0.027314758 -0.20110333 0.015964486 0.019683896 -0.32538047
0.092657454 -0.21264032 0.16126086 -0.0667931 0.13824451 0.12517074 -0.50957376 0.08092201

fc1.bias f4 [300]
00000000: 6651 0d3e 3931 8dbd 39e4 22bd e7e7 f43e
00000010: 35c4 873d 9904 afbe e707 0ebe 8cae ce3e
00000020: a734 1dbd 44b5 883d 6895 b2be 148c 1ebe
00000030: f1cd 963e f5d6 5dbe 96b2 c13e e47d 623e
00000040: c943 5ebe 90db d83e 8c29 943e 5978 90be
00000050: 114c f63e ae84 0dbd 78e6 aa3e 7875 4dbe
00000060: 356e 023f 5aa3 0c3f ba86 5a3e 8ea0 5f3e
00000070: b5f4 29be 4556 9ebe 551b aebe 3f3b 023f
00000080: 0dbe 35bd 2cf6 6ebe 9880 9dbe 5533 d4be
00000090: ba65 da3e 95a9 74be 8025 003e 2973 7cbe
000000a0: 2d39 943e a822 a7bd 6c46 55be 836e 033f
000000b0: 3852 f9bc 2bf4 dbbd 434b 8d3e 2bde 563e
000000c0: d103 8d3c 97f5 22be fa1c 833e 315f 3bbe
000000d0: f7a9 79bd ad97 033f 8f27 82be bb52 8c3e
000000e0: cc9a ccbd 8065 1ebe 9168 363d 5802 af3e
000000f0: fbe1 a93e fc29 893e 5e38 94bd deb3 cdbd
00000100: 9b66 a43e 37d8 0dbe 1830 c43d 9280 a53e
00000110: d529 3d3e 3559 843d 6a74 ec3d 6d6c 0d3e
00000120: 8c4c eabd 5a54 0abe 9583 ea3e 5e59 6abe
00000130: 7b91 8fbe 6c2f 8ebe 31ef ec3e a7f2 b43d
00000140: 8220 db3d a07e a13e 44b6 44be 90e1 883e
00000150: d09b 9b3e 3b2c 0bbe 9892 27be 27e8 0ebe
00000160: 2555 593e b2d7 8fbe 002b bb3e 7703 4ebe
00000170: f1e1 0f3e 0fda 75be e6f8 353e ccd0 5c3d
00000180: 9856 06be 1754 543d dfdb 153e a5ab 4cbe
00000190: 4314 4cbd 8b01 083e 1b98 4dbd de8b fcbd
000001a0: eabb 90be b78c 30be 341c 043f f749 583e
000001b0: 870a 66be 4864 323e 036b b33e 8bbc 8f3e
000001c0: 8b9d 39be dd7b eb3d 3a40 843d b2b9 ad3e
000001d0: 769b 41be 6ac1 10be 5dba e63d 603f 1fbe
000001e0: 58fa d7bd 10f8 c13d 2c14 dcbe 0d2f de3e
000001f0: 5118 9c3e dce1 fabe 8c6a aabd d611 6a3d
00000200: b8c4 cdbe 0e8a 98bd ebca 533e f918 5bbe
00000210: 3078 c5bd e50c 763e 3e60 19bd b9db 7cbd
00000220: 963b 7d3e ebf4 d93e ac20 fcbc e6fd dfbd
00000230: bebb 453e 0733 013f 69f0 9dbe a7c2 66be
00000240: 0a1e 99bd 990f a8bd 631b dd3e 2fb8 9dbe
00000250: 2a00 0abe eb3c 843d 7955 9a3e 5e7c 1d3f
00000260: 9828 903e 2a71 5c3e a1ba d73d f479 2dbd
00000270: a8b2 ab3e eb55 263e d7e8 193e 08d9 f2bd
00000280: 63eb 90be d011 fcbe 9b09 28be c904 8abe
00000290: 85b3 433e 7437 67be e2fa 343e 1f10 a23c
000002a0: 09b9 0d3f 28bf cfbe 07c8 93be f200 eabd
000002b0: 0ff9 4e3e b6f0 11bd bb53 983d 3394 45be
000002c0: fbec be3e 05fb 383e 4421 ed3d 61f2 db3d
000002d0: f23c 23be 2b7f 463e 5a39 993e ba75 48be
000002e0: 8163 20be 508f 513d 8857 4bbe f11a a3bc
000002f0: 2721 e33e 75fa 3abd 91e3 4bbe fa77 d53e
00000300: ad91 f43d 76df 09bd 74ca 0abf de78 413e
00000310: 10dd e2bd 1fcf 9dbe a400 a63e f3f7 ed3e
00000320: 9913 b03e fdc5 aebd 3eb0 bf3e 62c0 dabe
00000330: 74f8 633e 63cc 46be 42c1 763e 0883 fbbd
00000340: eb92 1a3e 255c 3fbe f915 543d 5667 0fbe
00000350: 4f48 d33d 9e3d dabc b522 983d 9ca5 30be
00000360: 438c f13c d929 aa3e 2a52 30be 165b b4bd
00000370: 0ca8 143d 8c74 49be e9a6 03be 2b03 e7be
00000380: 0302 75be 16ef 1f3e feaa e0be ef1f 4fbe
00000390: cceb dcbe 4bae d2bd fc5b 1c3d ffe6 a5bd
000003a0: 0e88 2d3d e6f9 443e 9d6a 863d db80 163e
000003b0: a715 e0be 5143 e43d 554a 883e 15d6 db3e
000003c0: d4cc 8b3e 25b8 bdbd 341c 04bf e2f8 95bd
000003d0: f68f f53e 292f 663e 62f7 df3e ce5e 623e
000003e0: a197 e73e e615 55be 293f 563e 6f6f 08be
000003f0: 9050 23be 8b48 09be 12f3 063f 3b46 623c
0.13800582 -0.06894154 -0.03976843 0.47833177 0.066292204 -0.34183195 -0.13870202 0.40367544
-0.03838029 0.06675199 -0.34879613 -0.15483123 0.29453996 -0.21664031 0.37831563 0.22118336
-0.21705545 0.42355013 0.28937948 -0.28216818 0.4810491 -0.03455036 0.3337896 -0.20064342
0.5094941 0.54936755 0.21340457 0.2183859 -0.16597255 -0.30925193 -0.34005228 0.5087165
-0.0443707 -0.23336095 -0.30762172 -0.41445413 0.42655736 -0.23892815 0.12514305 -0.24653305
0.28949872 -0.08160907 -0.20827645 0.513405 -0.030434713 -0.10739931 0.27596483 0.20983188
0.017213734 -0.15913998 0.25608045 -0.18298031 -0.060953107 0.51403314 -0.25420806 0.27406868
-0.09990463 -0.15468407 0.044533316 0.34181476 0.33180222 0.26789844 -0.07237314 -0.100440726
0.32109532 -0.1385201 0.09579486 0.32324654 0.18472989 0.064623274 0.11545642 0.13810892
-0.114403814 -0.1350874 0.45803514 -0.22885653 -0.2804068 -0.27770555 0.4627624 0.08835345
0.1069956 0.3154192 -0.19210154 0.2673459 0.30392313 -0.13591091 -0.16364515 -0.13955747
0.21223886 -0.2809425 0.36556244 -0.20118509 0.14051034 -0.24008964 0.17770728 0.05391006
-0.1311897 0.051838007 0.14634655 -0.19987352 -0.04982401 0.13281839 -0.050193887 -0.12331365
-0.28268367 -0.17241178 0.51605535 0.21121965 -0.22464953 0.17421067 0.3504258 0.28073534
-0.18126504 0.114982344 0.06457563 0.33930737 -0.1890696 -0.14136282 0.11266015 -0.1555152
-0.10545796 0.09471142 -0.4298414 0.43395272 0.30487302 -0.49000442 -0.083211035 0.057145916
-0.40189147 -0.07448207 0.20682876 -0.21396245 -0.096420646 0.24028356 -0.0374453 -0.06173298
0.24729761 0.4256967 -0.030777298 -0.10937099 0.19309899 0.50468487 -0.3084748 -0.22535191
-0.074764326 -0.082061 0.43184957 -0.30804583 -0.13476625 0.06456932 0.30143335 0.61517894
0.2815597 0.21527544 0.105336435 -0.04235263 0.3353474 0.16243713 0.15030228 -0.11857802
-0.28304586 -0.4923234 -0.16409914 -0.26956776 0.1911145 -0.22579747 0.17673829 0.019783078
0.55360466 -0.40575528 -0.28863546 -0.114259616 0.20212196 -0.03562995 0.07437845 -0.19294815
0.37290177 0.18064506 0.115786105 0.107395895 -0.15941218 0.19384448 0.29926568 -0.19576159
-0.15662958 0.051162064 -0.1985761 -0.019910308 0.4436123 -0.04564901 -0.19911028 0.41693097
0.11941848 -0.033660375 -0.5421517 0.18893763 -0.110773206 -0.30822083 0.32422364 0.46478233
0.34389952 -0.08533857 0.3743915 -0.427249 0.22262746 -0.19413905 0.2409716 -0.122808516
0.15095107 -0.18687494 0.051778767 -0.14004263 0.10316526 -0.02664071 0.07428495 -0.17250675
0.029485827 0.33235052 -0.17218843 -0.08806436 0.036293074 -0.19673365 -0.1285664 -0.45119604
-0.23926549 0.15618548 -0.43880457 -0.20227025 -0.4314865 -0.1028715 0.03817366 -0.081007
0.04236608 0.19235954 0.065633036 0.14697592 -0.4376652 0.11145652 0.2661921 0.4293677
0.2730471 -0.092636384 -0.51605535 -0.07322861 0.47961396 0.22478928 0.43743426 0.22106478
0.4523287 -0.20809135 0.20922531 -0.13323759 -0.15948701 -0.13406579 0.52714646 0.01381069

fc2.weight f4 [600, 300]
00000000: fb6c b7be bd92 aabe d3fe 51be 01c9 84bd
00000010: 2d9e 3abe 10fc 8abe 5006 cdbc 860e 3fbd
00000020: 72a5 723e 36c8 78bd 5fe4 d9bd c89c ebbe
00000030: 3351 6b3d bc49 93bd a88f c5bd b8b2 223e
00000040: d337 abbe 03d9 773e 3cc9 b83e 7f66 38be
00000050: 65ac ab3d b940 3cbd a84b ee3d 4292 033f
00000060: 2c00 ae3d 4277 b93e 6dad 813e 152e 01bf
00000070: b252 8d3c 36ab 423c 1b25 45be b6a6 04bd
00000080: 345c 86be d4d0 01be 1438 6ebe d758 203e
00000090: cb70 bbbd 5017 84bd 9262 5b3d 9ebf 5c3e
000000a0: 4b14 8f3d dbb6 9ebd 06a8 74bd 6f86 1e3e
000000b0: cb79 dcbe fe7d 0ebe 3bd9 c53e 3621 3ebe
000000c0: 2997 03be ed02 0e3e 6ab5 f03d 7e90 d2bd
000000d0: 4622 72be 7894 93bc 67c2 bdbd 3b15 b93d
000000e0: 28f0 5cbe 6a52 af3c 66c5 1ebd d7bb 873e
000000f0: f5ba 04be cc25 633d 0012 44be 5766 4cbe
00000100: 07bf f3bd 9743 8e3c 1f04 853e b92d 1cbf
00000110: 6fe1 4dbc d33b 70be 380e 41be a88c b4bb
00000120: d496 68bc 5742 b5be b310 82bb eaeb 5bbe
00000130: 4f29 ca3d 01a6 fdbe 04ca 8f3b f750 ce3e
00000140: cd16 b03e 7d78 5c3c 1cb4 a7bd 4d4f 153d
00000150: 70e8 2cbe fdb5 3abe 881d 1ebd 9fe5 ad3d
00000160: d0a1 333e 11f8 95be ed29 4c3e 59f9 48bc
00000170: 2f9a 0f3e b6c4 d6bc 9240 2a3e f2eb 0c3f
00000180: d828 f13d 22f1 26be 4f05 5dbd 756e 99bc
00000190: 0f7b c9be cc1a 2a3d 6733 a4be 5d04 f83c
000001a0: 5165 6f3e 8e4f d83c a968 02bd a5af 00be
000001b0: 2910 a6be 7dc6 f0be b34e bdbd 0683 4c3e
000001c0: de7c c23a 5a5e 09be 46de 063d 67a4 a53d
000001d0: 62c8 68bd 086b 9f3e c9c3 20bd 4f39 aebe
000001e0: 2fdb c13d bd71 6d3e 9f2e 74be 0752 4b3c
000001f0: eb62 8cbd 6e65 acbd 62cb 8f3d cf78 f33d
00000200: bd9c a73e 0cb7 74be 158e 2a3e 296a 3cbe
00000210: 3bc0 ad3d ebd8 973e 628e 503e fcc6 7f3d
00000220: b39e 263d 268d 28bd 8909 8b3e ac65 a5bd
00000230: 3c00 e73c 2fa6 17be b250 143e 95d1 20bc
00000240: ed26 8e3e e50c 073e 7dc6 13be d7d8 b2be
00000250: ee51 423d eef6 5bbe 7ab6 e0bd ea26 cb3d
00000260: 7f33 8a3d 7bee 143e 7109 493e 04a8 d1bd
00000270: 2c10 0f3e c864 1e3e ad73 bebc bccd 803d
00000280: 5779 80bc 090d b83c 9808 68be a374 b0bd
00000290: a379 bf3e 1926 08bb 550c 613c 672e 38be
000002a0: e211 623e 52b2 88be 2c8c 87bd 7ff5 cabe
000002b0: e02c 803e d242 973e 748c 47bd d3be 61bd
000002c0: 11b5 683d 55a9 863e 0f8d e0bd 4adf a5be
000002d0: b351 ec3d 50a7 2fbe d1c7 5b3d 95cb 88be
000002e0: c971 22bd 9a7a e63e e9d2 f7bd acb0 a13d
000002f0: 4c3f 513e d07d b53e c2bb 45bd d009 cbbd
00000300: 31b7 50be 3278 c6bc 08e2 94be 7c54 2cbf
00000310: 7135 2abb b107 9f3c 7011 e33d 8f8b 05bd
00000320: f946 a13e f78c 0dbe 6df0 f2bc 2b00 8fbd
00000330: 7e6c 463e e7de 5bbd 1ea3 f63d 038d 6dba
00000340: 2d46 b23e 1c82 433d 7dc9 9cbc 0558 8bbe
00000350: 4d54 173e 0f4e d53c 3cc4 0dbe e910 48be
00000360: ccbe 1bbc de68 543e 6972 1cbe 9662 993e
00000370: de8d 45be 3569 97bc 296e 663e 8b33 33be
00000380: 7142 7bbd 964a 893d 183d b0be 68f5 eebb
00000390: 3396 98be 0775 80be a3ed 0c3e e7ed 083f
000003a0: aeb4 b0be b3e9 c53e f80c c63c 1c56 cd3d
000003b0: ed67 a4be a572 23be 3312 a2bd d6b6 2a3e
000003c0: bec6 5e3e 81f5 c3bd d2e4 afbe 60de d83e
000003d0: 5f48 6d3c 7cc2 22bd 6a44 0ebe 1858 c13e
000003e0: f44d 31bc f4d2 02bf 067a 1d3b 253f 793e
000003f0: e3ff c2be 0212 81be 4039 573e 23a9 f1be
-0.35825333 -0.33315077 -0.20507364 -0.06483651 -0.18224402 -0.27145433 -0.025027424 -0.04664471
0.23695925 -0.06073781 -0.106392615 -0.46018052 0.057450484 -0.07191798 -0.09646541 0.15888488
-0.33441028 0.24203877 0.3609103 -0.18007849 0.08382491 -0.04596016 0.11635524 0.51395047
0.084961265 0.362238 0.25327626 -0.5046094 0.017251346 0.01188164 -0.19252436 -0.03238555
-0.2624222 -0.12677318 -0.2326358 0.1565889 -0.09152373 -0.06449759 0.0535608 0.21557471
0.069862925 -0.07749721 -0.059730552 0.1548097 -0.4306167 -0.1391525 0.38642296 -0.18567356
-0.12850632 0.13868304 0.11753352 -0.10281466 -0.23645887 -0.018015131 -0.09265595 0.090372525
-0.21575987 0.021401603 -0.038762473 0.26510498 -0.12961943 0.055455968 -0.19147491 -0.19960915
-0.1190167 0.017366214 0.25979707 -0.6100727 -0.012565955 -0.23460321 -0.1885308 -0.0055099316
-0.0141961165 -0.35402176 -0.003969276 -0.21476713 0.0987116 -0.49540713 0.004388096 0.40296146
0.34392396 0.013456461 -0.0818865 0.03645258 -0.16885543 -0.18233486 -0.038602382 0.084910624
0.17542195 -0.29290822 0.19937868 -0.01226648 0.1402366 -0.026216846 0.16626194 0.55047524
0.117753685 -0.16302922 -0.05396014 -0.018729428 -0.393517 0.04152946 -0.32070467 0.030275518
0.23378493 0.026405122 -0.031838093 -0.12567003 -0.32434204 -0.47026435 -0.09243526 0.19971856
0.0014838239 -0.13414899 0.03292682 0.08087998 -0.056831725 0.31136346 -0.039249215 -0.34028098
0.09465634 0.23187919 -0.2384591 0.012409694 -0.068548046 -0.08417784 0.07021214 0.11888277
0.3273677 -0.23897952 0.16655762 -0.18399872 0.08483931 0.29657683 0.20366815 0.062445626
0.04067869 -0.041150235 0.27155712 -0.08076033 0.028198354 -0.14809488 0.14483908 -0.009815593
0.27764073 0.13188513 -0.14431186 -0.3493106 0.047441415 -0.21480915 -0.10972305 0.09919532
0.06748103 0.14544098 0.19632508 -0.102371246 0.13971013 0.15468132 -0.023248518 0.06289241
-0.01568286 0.022467153 -0.22659528 -0.08615997 0.3739749 -0.002077466 0.01373585 -0.17986451
0.22077134 -0.26698548 -0.066185325 -0.39640424 0.25034237 0.29543167 -0.04871793 -0.055113625
0.056813303 0.26301065 -0.10964405 -0.3239692 0.115390204 -0.17153668 0.053657357 -0.2671782
-0.039659295 0.45015413 -0.12100775 0.078950256 0.20434302 0.3544755 -0.048274763 -0.09913981
-0.20382382 -0.024227235 -0.29078698 -0.6731641 -0.0025971795 0.019412847 0.1108731 -0.032603797
0.3149946 -0.13823305 -0.02965566 -0.06982454 0.19377324 -0.053679373 0.12042831 -0.0009061845
0.34819165 0.047731504 -0.019139046 -0.2721559 0.14778252 0.026038198 -0.13844389 -0.195377
-0.009505939 0.20743129 -0.15278019 0.29958028 -0.192924 -0.018482784 0.2250296 -0.17500131
-0.06134266 0.06703679 -0.3442161 -0.0072924383 -0.29802093 -0.25089285 0.13762526 0.5348801
-0.34512848 0.3865486 0.024176106 0.1002619 -0.3211054 -0.15961702 -0.079136275 0.16671309
0.21755502 -0.095683105 -0.34354264 0.4235716 0.014482587 -0.039736256 -0.13893285 0.37762523
-0.010821808 -0.5110314 0.002402903 0.24340494 -0.3808585 -0.2520905 0.21017933 -0.47199354

fc2.bias f4 [600]
00000000: 91e9 253e 3111 d63e cf4f 243e 7de0 023e
00000010: f764 233e 1bdf 90bd 5ce2 5abd 0757 853e
00000020: 6939 4dbc e79b a2bd 5349 d13e 33c9 063f
00000030: 2804 e03e 485b 0c3e e4d4 2b3d 7487 c33e
00000040: 748f ea3e d506 6e3e c924 623e 866c b238
00000050: f0f0 dc3d 5071 c33e 1d22 39bc 2d19 3a3e
00000060: 0c8e 1d3e f5f8 cb3e 8d8d f03d 9950 ae3c
00000070: ef0e 503e 4aaf 94bc baed 16be 098f f63e
00000080: 4e9f 843e 6eef 71bd 6319 3c3e 439a 233e
00000090: 389a c13e 4a5d e03e 1e13 943e b5ec 883e
000000a0: 8a92 9b3e 6ac3 e63e d42c 463e bbea 613e
000000b0: 945b 20bd f29a 89bd c55c de3e cdba 553e
000000c0: 823f b43d 9c0d 0c3e 8301 743e cbd0 093e
000000d0: 2787 af3d 5af7 c2ba 25fb dc3e ec8e 153e
000000e0: 87af bb3e 9250 84bd 1f7c aa3e baaf d83e
000000f0: ab92 32b9 3d39 b83e ce85 6d3e aaee 51bc
00000100: 42cb 4a3e fa77 2a3e 7ad5 79bd 9cdb 2cbd
00000110: b07f 9dbc f51c ba3e b298 ebbc 8b32 3a3e
00000120: 883c 3abd 9ece e43e c120 4c3e d73b a43e
00000130: 3e10 d43d 57a7 993c ae04 333e c81e e63e
00000140: 6515 7bbb 2526 d3bc 3683 3c3e 8e27 5b3e
00000150: 2167 853b 9972 443e ea3f a93e 9ce1 1d3e
00000160: c17e c53e 7273 75bd 9de0 8ebd 9750 c73e
00000170: d6df a3bc 7608 c83e f400 983e 2f18 a93e
00000180: ca0d 2e3e a414 a7bd bb21 163e 2437 043f
00000190: ed88 de3e 1a47 23bd 3be5 083e 4170 d4bc
000001a0: 2f23 ee3e c6e4 b63e cd71 063d 6df0 ae3e
000001b0: 9032 83bd 3793 01be 4a75 863d ce23 c23e
000001c0: 94b3 873d e016 603e 55d5 fa3b 96dc b43e
000001d0: 2028 513e 1776 e23d a3f1 48bd 019e bf3e
000001e0: 2ea2 733d 38fc 3bbd 7e15 053f 376d c23e
000001f0: da46 6bbd 937a 62bd d436 cf3e 5ca4 21bd
00000200: 2d76 de3e 591c ab3e a685 5bbd 66a4 153e
00000210: 945c 293e c5e6 b53e e045 bb3e bce5 52bd
00000220: 3136 953e fec0 af3e 7c8b ce3e cd01 bebc
00000230: 77a4 bc3e a545 de3d 7b31 6e3e eba6 cabd
00000240: 0edb 0fbd 99d4 7cbd ac37 bc3d 8da4 63bd
00000250: 4cb1 7dbd 8438 b83e 0c12 0cbd e674 d83e
00000260: f04b f13e 2ee2 b8bd d666 00bd f1f6 f43e
00000270: 66d9 ef3b 3ffa 7e3e de3b a73d e784 3f3e
00000280: 8d26 a43d c7d8 02bd e1bc 373e 5118 4b3a
00000290: 580e 023f dd68 f93d 7515 0c3e e18c 063f
000002a0: 5ce6 df3e 0dc5 c6bc 141b c43e 10f3 193e
000002b0: d63e 89bc 3dfd 72bd b2ab b63d 68fd c9bc
000002c0: 9b3d e73e ed2d 99bc ba30 943e 15e8 2bbd
000002d0: db1a b73e b65b 143e 849a e3bd 6067 883d
000002e0: 7c76 1a3d 4553 c63e ef97 623d c056 923d
000002f0: 49a0 583d 3b56 3ebd 7240 a6bd 73ed 19be
00000300: 4899 823e 2a71 933e ca33 9ebd 1424 1e3e
00000310: 15f8 8cbc e1c9 5e3c 6d7e 973e c336 933d
00000320: 03bf 99bd 3e92 cb3e bc94 a3bb 2ae4 19bd
00000330: 19f4 1c3f 2455 803d 5324 d33e b619 e13e
00000340: f9f4 953e 9fb9 eb3e fbde 11be 6e71 f23e
00000350: 7c2c 003f 4ae6 36bd 1e3f dc3d 7f2d f7bc
00000360: 4309 cd3e 5e50 49bd 0237 063f 7565 d6bd
00000370: c20c 533e 6976 bc3c 6015 9f3c 8f09 213d
00000380: f6ed 653d 5ebd 4d3e dc40 68bc 7df4 f63e
00000390: f77d a8bd 5acf 8d3e 7231 95bd dda0 05bd
000003a0: a467 d13e 2787 6d3e dbb8 cf3e 6463 bc3e
000003b0: 79f3 323e fc19 cb3e 91a0 7abc 3db9 6c3e
000003c0: 484e a73a 9ae8 8fbd 21db 293c 58ce 4f3e
000003d0: 1dbd 3bbd db19 b0bd e1cd 723e 143c 00be
000003e0: bcba 5a39 e319 363e 9184 4a3e a335 a43d
000003f0: 440f b23e e935 523e b7a5 5ebb bca0 4dbd
0.1620238 0.4180999 0.1604607 0.12780948 0.15956484 -0.07073804 -0.05343853 0.2604296
-0.012525895 -0.07939892 0.40876254 0.52650756 0.4375317 0.13706696 0.041951075 0.3818928
0.4581257 0.23244794 0.22084345 8.5079155e-05 0.10788143 0.38172388 -0.011299637 0.18173666
0.15386218 0.39838377 0.11745749 0.021278666 0.20318197 -0.01814999 -0.14739123 0.48156002
0.2590279 -0.05906623 0.1836906 0.15976815 0.37812972 0.43821174 0.28920835 0.26743093
0.30385238 0.45070964 0.19353038 0.22062199 -0.039149836 -0.067190066 0.43430153 0.2087204
0.08801176 0.13677067 0.23828702 0.13458554 0.085707 -0.0014874742 0.43160358 0.14605302
0.36657354 -0.0646068 0.33297822 0.4232157 -0.00017030041 0.3598117 0.23195574 -0.01281325
0.19804099 0.1664733 -0.060994603 -0.042201623 -0.019225925 0.36350217 -0.028759334 0.18183343
-0.045467883 0.44688886 0.1993437 0.32076904 0.103546605 0.018756552 0.17482254 0.4494536
-0.0038312313 -0.025775025 0.18409428 0.21401808 0.004071132 0.1918434 0.33056575 0.15418094
0.38573268 -0.05992455 -0.06976435 0.38928673 -0.020004194 0.39068955 0.29688227 0.33026263
0.16997448 -0.08158234 0.14661305 0.5164664 0.4346384 -0.03986273 0.13368694 -0.025932433
0.46511218 0.35721415 0.032823373 0.34167805 -0.064061284 -0.12653814 0.0656534 0.37917942
0.06626049 0.21883726 0.0076548257 0.35324544 0.20425463 0.1105768 -0.049058568 0.37425235
0.05948084 -0.04589483 0.5198592 0.3797395 -0.057440616 -0.055292677 0.40471518 -0.039463386
0.43449536 0.33420065 -0.053594254 0.14613494 0.16539222 0.35527626 0.36576748 -0.051488623
0.29142907 0.3432693 0.40340793 -0.023194218 0.36844227 0.108531274 0.23261063 -0.09895118
-0.035121016 -0.061726186 0.09190306 -0.05557685 -0.06193666 0.35980618 -0.0341969 0.42276686
0.47128248 -0.09027515 -0.031348072 0.4784465 0.007319617 0.24900149 0.08165716 0.18703042
0.080151655 -0.031945016 0.17943145 0.0007747459 0.50803137 0.12178204 0.1368006 0.52558714
0.43730438 -0.024263883 0.3830191 0.15034127 -0.016753595 -0.059323538 0.08919467 -0.024656966
0.4516419 -0.018698657 0.28943425 -0.041969378 0.35762677 0.1448811 -0.11113456 0.06660342
0.03771065 0.38735405 0.055320676 0.071454525 0.052887235 -0.046468955 -0.08117761 -0.15031986
0.2550757 0.28797275 -0.07724722 0.1544345 -0.017208138 0.013597936 0.29588643 0.07188179
-0.07507136 0.3976001 -0.0049920958 -0.03757111 0.61309963 0.06266239 0.4123865 0.43964928
0.29288462 0.46040055 -0.14245217 0.47352165 0.5006788 -0.044653215 0.10754226 -0.030173061
0.4004613 -0.04914891 0.52427685 -0.1046857 0.20610335 0.023005681 0.019419372 0.039315756
0.05613514 0.20091769 -0.01417562 0.48233405 -0.08227151 0.2769726 -0.072848216 -0.032624114
0.40899384 0.23196088 0.4057072 0.3679458 0.1747569 0.39668262 -0.015297071 0.23117538
0.0012764418 -0.07026787 0.010367186 0.20293558 -0.04583465 -0.085986815 0.23711349 -0.12522918
0.00020859664 0.17783312 0.19777133 0.08018043 0.34777272 0.20528378 -0.0033973285 -0.050202116

value.weight f4 [1, 600]
00000000: b059 9e3b 46f2 413e 0ea6 5bbd 3d4f 11be
00000010: e046 1c3d acb0 d33c 2e22 3fbb a8c2 693e
00000020: 491c c33b 049b 77be 9be6 493e 3ebd 173f
00000030: 7801 a93e aec2 54bd 716c 4e3c 7774 4b3e
00000040: c31e 6d3e 40ea 65bd 1a4b 543d 6a18 c7be
00000050: 6698 35be 8f4a 423e 3835 a1bc c7ac 09be
00000060: 55c8 fb3c 8463 393e 9bd3 0cbd 9b0e c03c
00000070: 657b cd3b 59c5 97b8 1290 b6be 1d5e c83e
00000080: 76a8 693e 5519 9c3c c257 f8bd 9057 023e
00000090: fa98 b53e a8f8 fa3e 72e1 383e 2939 543e
000000a0: 6d01 623e 8600 5a3e aae4 aa3b 8d5e 083c
000000b0: 3e5a c3bb 1ae2 26bc 61e6 ec3e d950 36b9
000000c0: 7a10 afbc a347 94bd 9fce 29be 3927 eebd
000000d0: acaa 0bbe eae8 4f38 c5c6 ac3e 550f 0bbe
000000e0: f2b4 423e ec99 d4bc 4342 a93a e482 a63e
000000f0: 11cf d03c 4694 403e b46d 0ebe 053f b938
00000100: dee4 d83a 3939 83bd 5c8d 14bc 2239 5bbc
00000110: b14f b5bd 0f96 403e 2ad8 a23d 60f8 17bc
00000120: 200b d03c d154 c13e ce2b 57be 6936 6d3e
00000130: 9055 1b3d 069e 52bd 9f2c dcbd 9207 483e
00000140: 5aa3 00bd 9d10 833c e708 093d 1f5b 0e3c
00000150: e9b8 c23b ce41 c6bd d37f 3e3e 98d9 e6bc
00000160: 83cb 453e 4ee8 8a3c d71b 94bd 77bb 403e
00000170: e322 163e aa85 ef3e 52e3 fdbb 571f 443e
00000180: 05f0 2cbd 3b71 013d f923 89bb 85f1 d03e
00000190: a21e 4b3e aadf 013d 4b79 86bd 8825 41bc
000001a0: 7106 f73e 2ca8 463e 746e fa3c 7827 593e
000001b0: 33dd 013d 2988 b8be 9cab d1bd 8f96 003f
000001c0: 32ce 91bc a1fd 0abe 3456 2f3c e66c 4a3e
000001d0: 28fb 16be 0fc7 22be 54af 01bd 096f 433e
000001e0: 079c 433b c396 92bd 0684 e73e 8796 433e
000001f0: 84b4 b9bc 5925 e23d eaeb 393e b39f 87bc
00000200: cba6 c23e 586e a23e b647 d43d fc87 eb3b
00000210: ddb0 b3bd 672b 473e 5f48 ad3e 5e83 e63c
00000220: 391d 363c 721f 6d3e ff18 803e 57d2 aebe
00000230: b176 3d3e ebd5 88bd f478 77bd 7a29 29bc
00000240: f172 843c cdbe c33d 7af4 9abe 6f4e e2bc
00000250: 77ad c3bb b343 b63e 4892 b6bc a27b 6a3e
00000260: 4d5e c63e 2807 eabc e959 fabb 4a4b b43e
00000270: 7d34 443b 4cd5 bebc ae89 6fbe edf7 7cbc
00000280: d560 e93c 9a3c 5abc 5db6 553b bd94 913c
00000290: 5a61 013f de70 9dbe b058 01bd a440 ca3e
000002a0: aaf6 3c3e e629 2bbb 64f6 6d3e 9976 233b
000002b0: 1a79 1fbc 5b94 cbbc 1de7 10be 4b14 a73c
000002c0: 8781 a63e 84aa cb3d 647b c83d b96d 2bbc
000002d0: d685 413e f731 e73c 109e bd3a c469 93bd
000002e0: 45c2 c1be 9eaa ca3e 992b 243b c4d5 5f3d
000002f0: e6d9 c0bc f5de 06bb a7b8 a1bc a09a 87bd
00000300: 8bd8 633e affa 673e 9bb9 dbbb 36d1 aebd
00000310: 2198 203c b504 6dbe 0a52 6e3e 4576 84be
00000320: 24d8 47bb fd06 463e f1ea a63d f57c da3c
00000330: 5377 863f 9aef b8bd 3cdd 463e fa9a 4d3e
00000340: 08af 683e 8cb8 ce3e 09b8 babe fa42 c53e
00000350: 920d 183f e37f 43bc c581 27be 9ab1 ecb6
00000360: 363b 453e 525f 6d38 215d 013f ab32 e2bc
00000370: 4500 1fbd da06 853c 5613 c3bb f28e f33d
00000380: 2298 81bd fd1b 0abd df09 fd3d 4cd2 e03e
00000390: cad9 d03b 6b4f adbd a63e 37bc 9410 a4bc
000003a0: 09d2 ca3e e47c 8abd 5556 c63e 59b0 4c3e
000003b0: 4f4f ae3c 702d 453e aee8 a93c 383b 143a
000003c0: ee78 d53d fd14 82be bb98 703d 53d1 fcbd
000003d0: 34c6 ecbc 8e14 1e3e f401 683e 49c1 893e
000003e0: 2e22 8f3b 00a3 7fbd fca3 a2bd 2c9c 53bc
000003f0: 35f7 413e 7399 8bbc 07e9 01bd 0197 933c
0.004832469 0.18940076 -0.05362516 -0.14190383 0.03815353 0.02584108 -0.002916466 0.22828162
0.0059542996 -0.24180228 0.19716875 0.59273136 0.33008933 -0.051943474 0.012599097 0.19868647
0.23156266 -0.0561316 0.051829435 -0.38885814 -0.17733917 0.18973754 -0.019678697 -0.13444816
0.030735174 0.18104368 -0.03438149 0.023444464 0.0062708133 -7.237e-05 -0.35656792 0.39134303
0.22818169 0.019055048 -0.121261135 0.12728715 0.35468274 0.49017835 0.1805475 0.2072493
0.22070856 0.21289262 0.005215247 0.008323324 -0.0059616854 -0.010185743 0.46269515 -0.0001738699
-0.021370161 -0.07240226 -0.16582726 -0.11628575 -0.13639325 4.9569564e-05 0.337454 -0.13580067
0.19014338 -0.025952302 0.0012913424 0.32521737 0.025489362 0.18806562 -0.13909036 8.833226e-05
0.00165477 -0.06407399 -0.009066906 -0.013380321 -0.088530906 0.18807243 0.07951386 -0.009275526
0.02539593 0.37760022 -0.21012804 0.23165287 0.037923396 -0.051420234 -0.10750698 0.19534138
-0.031405784 0.015999133 0.033455756 0.008688717 0.005942453 -0.0968052 0.18603449 -0.028179929
0.19315915 0.016956475 -0.072318725 0.18821512 0.14661746 0.46781665 -0.007748046 0.1915258
-0.042221088 0.031602126 -0.0041851965 0.40809265 0.19835904 0.031707443 -0.065661035 -0.011788733
0.48247102 0.1940009 0.030570246 0.21206462 0.031705093 -0.36041382 -0.1023781 0.50229734
-0.017798517 -0.13573314 0.010701705 0.19768104 -0.14744246 -0.15896247 -0.031661347 0.19085325
0.0029847638 -0.07157662 0.45217913 0.1910039 -0.022669084 0.1104228 0.181564 -0.016555643
0.38017878 0.3172481 0.1036524 0.0071878415 -0.08773968 0.1945015 0.33844277 0.028138813
0.011115366 0.23156527 0.2501907 -0.34144852 0.18502308 -0.066814266 -0.060418084 -0.01032483
0.01616809 0.09557877 -0.30264646 -0.02762529 -0.0059716064 0.35598525 -0.02228655 0.22898725
0.3874382 -0.028567865 -0.0076401127 0.3521369 0.0029938512 -0.023295067 -0.23392364 -0.0154399695
0.028488556 -0.013320113 0.0032609918 0.01777112 0.5053917 -0.30750173 -0.03157872 0.39502442
0.1845347 -0.0026117503 0.23238522 0.0024942516 -0.009733463 -0.024851015 -0.14150663 0.020395419
0.32520697 0.09944633 0.0978916 -0.010463172 0.1889871 0.028222067 0.0014466662 -0.071979076
-0.37843528 0.39583296 0.00250504 0.054647222 -0.023541402 -0.002057967 -0.01974137 -0.06621289
0.22250573 0.22654222 -0.0067054755 -0.085359976 0.009801895 -0.23146327 0.23273483 -0.25871482
-0.003049382 0.19338603 0.0815028 0.026670912 1.0505165 -0.09030075 0.19420332 0.2007865
0.22723019 0.40375173 -0.36468533 0.38527662 0.59395707 -0.011932346 -0.16358097 -7.0540236e-06
0.19260868 5.6593977e-05 0.5053273 -0.027612051 -0.038818616 0.016238619 -0.0059532328 0.11892499
-0.06327845 -0.033718098 0.123553984 0.43910444 0.0063736187 -0.084624134 -0.01118437 -0.020027436
0.3961337 -0.06762102 0.3873774 0.19989146 0.021278052 0.19255614 0.020740833 0.0005654576
0.10423456 -0.25406638 0.058739405 -0.12344613 -0.028903104 0.15437528 0.22656995 0.26905277
0.004368088 -0.06241131 -0.07941434 -0.012915652 0.18941958 -0.017040944 -0.031716373 0.01801634
